…
snapshot_prefix: "zf_faster_rcnn"
average_loss: 100
iter_size: 2
I0323 21:06:05.923643  2864 solver.cpp:81] Creating training net from train_net file: /home/sgabriel/py-faster-rcnn/models/pascal_voc/ZF/faster_rcnn_end2end/train.prototxt
I0323 21:06:05.925652  2864 net.cpp:49] Initializing net from parameters: 
name: "ZF"
state {
  phase: TRAIN
}
layer {
  name: "input-data"
  type: "Python"
  top: "data"
  top: "im_info"
  top: "gt_boxes"
  python_param {
    module: "roi_data_layer.layer"
    layer: "RoIDataLayer"
    param_str: "\'num_classes\': 2"
  }
}
layer {
  name: "conv1"
  type: "Convolution"
  bottom: "data"
  top: "conv1"
  param {
    lr_mult: 0
  }
  param {
    lr_mult: 0
  }
  convolution_param {
    num_output: 96
    pad: 3
    kernel_size: 7
    stride: 2
  }
}
layer {
  name: "relu1"
  type: "ReLU"
  bottom: "conv1"
  top: "conv1"
}
layer {
  name: "norm1"
  type: "LRN"
  bottom: "conv1"
  top: "norm1"
  lrn_param {
    local_size: 3
    alpha: 5e-05
    beta: 0.75
    norm_region: WITHIN_CHANNEL
    engine: CAFFE
  }
}
layer {
  name: "pool1"
  type: "Pooling"
  bottom: "norm1"
  top: "pool1"
  pooling_param {
    pool: MAX
    kernel_size: 3
    stride: 2
    pad: 1
  }
}
layer {
  name: "conv2"
  type: "Convolution"
  bottom: "pool1"
  top: "conv2"
  param {
    lr_mult: 0
  }
  param {
    lr_mult: 0
  }
  convolution_param {
    num_output: 256
    pad: 2
    kernel_size: 5
    stride: 2
  }
}
layer {
  name: "relu2"
  type: "ReLU"
  bottom: "conv2"
  top: "conv2"
}
layer {
  name: "norm2"
  type: "LRN"
  bottom: "conv2"
  top: "norm2"
  lrn_param {
    local_size: 3
    alpha: 5e-05
    beta: 0.75
    norm_region: WITHIN_CHANNEL
    engine: CAFFE
  }
}
layer {
  name: "pool2"
  type: "Pooling"
  bottom: "norm2"
  top: "pool2"
  pooling_param {
    pool: MAX
    kernel_size: 3
    stride: 2
    pad: 1
  }
}
layer {
  name: "conv3"
  type: "Convolution"
  bottom: "pool2"
  top: "conv3"
  param {
    lr_mult: 0
  }
  param {
    lr_mult: 0
  }
  convolution_param {
    num_output: 384
    pad: 1
    kernel_size: 3
    stride: 1
  }
}
layer {
  name: "relu3"
  type: "ReLU"
  bottom: "conv3"
  top: "conv3"
}
layer {
  name: "conv4"
  type: "Convolution"
  bottom: "conv3"
  top: "conv4"
  param {
    lr_mult: 0
  }
  param {
    lr_mult: 0
  }
  convolution_param {
    num_output: 384
    pad: 1
    kernel_size: 3
    stride: 1
  }
}
layer {
  name: "relu4"
  type: "ReLU"
  bottom: "conv4"
  top: "conv4"
}
layer {
  name: "conv5"
  type: "Convolution"
  bottom: "conv4"
  top: "conv5"
  param {
    lr_mult: 0
  }
  param {
    lr_mult: 0
  }
  convolution_param {
    num_output: 256
    pad: 1
    kernel_size: 3
    stride: 1
  }
}
layer {
  name: "relu5"
  type: "ReLU"
  bottom: "conv5"
  top: "conv5"
}
layer {
  name: "rpn_conv/3x3"
  type: "Convolution"
  bottom: "conv5"
  top: "rpn/output"
  param {
    lr_mult: 1
  }
  param {
    lr_mult: 2
  }
  convolution_param {
    num_output: 256
    pad: 1
    kernel_size: 3
    stride: 1
    weight_filler {
      type: "gaussian"
      std: 0.01
    }
    bias_filler {
      type: "constant"
      value: 0
    }
  }
}
layer {
  name: "rpn_relu/3x3"
  type: "ReLU"
  bottom: "rpn/output"
  top: "rpn/output"
}
layer {
  name: "rpn_cls_score"
  type: "Convolution"
  bottom: "rpn/output"
  top: "rpn_cls_score"
  param {
    lr_mult: 1
  }
  param {
    lr_mult: 2
  }
  convolution_param {
    num_output: 18
    pad: 0
    kernel_size: 1
    stride: 1
    weight_filler {
      type: "gaussian"
      std: 0.01
    }
    bias_filler {
      type: "constant"
      value: 0
    }
  }
}
layer {
  name: "rpn_bbox_pred"
  type: "Convolution"
  bottom: "rpn/output"
  top: "rpn_bbox_pred"
  param {
    lr_mult: 1
  }
  param {
    lr_mult: 2
  }
  convolution_param {
    num_output: 36
    pad: 0
    kernel_size: 1
    stride: 1
    weight_filler {
      type: "gaussian"
      std: 0.01
    }
    bias_filler {
      type: "constant"
      value: 0
    }
  }
}
layer {
  name: "rpn_cls_score_reshape"
  type: "Reshape"
  bottom: "rpn_cls_score"
  top: "rpn_cls_score_reshape"
  reshape_param {
    shape {
      dim: 0
      dim: 2
      dim: -1
      dim: 0
    }
  }
}
layer {
  name: "rpn-data"
  type: "Python"
  bottom: "rpn_cls_score"
  bottom: "gt_boxes"
  bottom: "im_info"
  bottom: "data"
  top: "rpn_labels"
  top: "rpn_bbox_targets"
  top: "rpn_bbox_inside_weights"
  top: "rpn_bbox_outside_weights"
  python_param {
    module: "rpn.anchor_target_layer"
    layer: "AnchorTargetLayer"
    param_str: "\'feat_stride\': 16"
  }
}
layer {
  name: "rpn_loss_cls"
  type: "SoftmaxWithLoss"
  bottom: "rpn_cls_score_reshape"
  bottom: "rpn_labels"
  top: "rpn_cls_loss"
  loss_weight: 1
  propagate_down: true
  propagate_down: false
  loss_param {
    ignore_label: -1
    normalize: true
  }
}
layer {
  name: "rpn_loss_bbox"
  type: "SmoothL1Loss"
  bottom: "rpn_bbox_pred"
  bottom: "rpn_bbox_targets"
  bottom: "rpn_bbox_inside_weights"
  bottom: "rpn_bbox_outside_weights"
  top: "rpn_loss_bbox"
  loss_weight: 1
  smooth_l1_loss_param {
    sigma: 3
  }
}
layer {
  name: "rpn_cls_prob"
  type: "Softmax"
  bottom: "rpn_cls_score_reshape"
  top: "rpn_cls_prob"
}
layer {
  name: "rpn_cls_prob_reshape"
  type: "Reshape"
  bottom: "rpn_cls_prob"
  top: "rpn_cls_prob_reshape"
  reshape_param {
    shape {
      dim: 0
      dim: 18
      dim: -1
      dim: 0
    }
  }
}
layer {
  name: "proposal"
  type: "Python"
  bottom: "rpn_cls_prob_reshape"
  bottom: "rpn_bbox_pred"
  bottom: "im_info"
  top: "rpn_rois"
  python_param {
    module: "rpn.proposal_layer"
    layer: "ProposalLayer"
    param_str: "\'feat_stride\': 16"
  }
}
layer {
  name: "roi-data"
  type: "Python"
  bottom: "rpn_rois"
  bottom: "gt_boxes"
  top: "rois"
  top: "labels"
  top: "bbox_targets"
  top: "bbox_inside_weights"
  top: "bbox_outside_weights"
  python_param {
    module: "rpn.proposal_target_layer"
    layer: "ProposalTargetLayer"
    param_str: "\'num_classes\': 2"
  }
}
layer {
  name: "roi_pool_conv5"
  type: "ROIPooling"
  bottom: "conv5"
  bottom: "rois"
  top: "roi_pool_conv5"
  roi_pooling_param {
    pooled_h: 6
    pooled_w: 6
    spatial_scale: 0.0625
  }
}
layer {
  name: "fc6"
  type: "InnerProduct"
  bottom: "roi_pool_conv5"
  top: "fc6"
  param {
    lr_mult: 1
  }
  param {
    lr_mult: 2
  }
  inner_product_param {
    num_output: 4096
  }
}
layer {
  name: "relu6"
  type: "ReLU"
  bottom: "fc6"
  top: "fc6"
}
layer {
  name: "drop6"
  type: "Dropout"
  bottom: "fc6"
  top: "fc6"
  dropout_param {
    dropout_ratio: 0.5
    scale_train: false
  }
}
layer {
  name: "fc7"
  type: "InnerProduct"
  bottom: "fc6"
  top: "fc7"
  param {
    lr_mult: 0
  }
  param {
    lr_mult: 0
  }
  inner_product_param {
    num_output: 4096
  }
}
layer {
  name: "relu7"
  type: "ReLU"
  bottom: "fc7"
  top: "fc7"
}
layer {
  name: "drop7"
  type: "Dropout"
  bottom: "fc7"
  top: "fc7"
  dropout_param {
    dropout_ratio: 0.5
    scale_train: false
  }
}
layer {
  name: "cls_score"
  type: "InnerProduct"
  bottom: "fc7"
  top: "cls_score"
  param {
    lr_mult: 0.01
  }
  param {
    lr_mult: 0.01
  }
  inner_product_param {
    num_output: 2
    weight_filler {
      type: "gaussian"
      std: 0.01
    }
    bias_filler {
      type: "constant"
      value: 0
    }
  }
}
layer {
  name: "bbox_pred"
  type: "InnerProduct"
  bottom: "fc7"
  top: "bbox_pred"
  param {
    lr_mult: 1
  }
  param {
    lr_mult: 2
  }
  inner_product_param {
    num_output: 8
    weight_filler {
      type: "gaussian"
      std: 0.001
    }
    bias_filler {
      type: "constant"
      value: 0
    }
  }
}
layer {
  name: "loss_cls"
  type: "SoftmaxWithLoss"
  bottom: "cls_score"
  bottom: "labels"
  top: "cls_loss"
  loss_weight: 1
  propagate_down: true
  propagate_down: false
  loss_param {
    ignore_label: -1
    normalize: true
  }
}
layer {
  name: "loss_bbox"
  type: "SmoothL1Loss"
  bottom: "bbox_pred"
  bottom: "bbox_targets"
  bottom: "bbox_inside_weights"
  bottom: "bbox_outside_weights"
  top: "bbox_loss"
  loss_weight: 1
}
I0323 21:06:05.925925  2864 layer_factory.hpp:77] Creating layer input-data
I0323 21:06:06.284642  2864 net.cpp:106] Creating Layer input-data
I0323 21:06:06.284694  2864 net.cpp:411] input-data -> data
I0323 21:06:06.284734  2864 net.cpp:411] input-data -> im_info
I0323 21:06:06.284749  2864 net.cpp:411] input-data -> gt_boxes
RoiDataLayer: name_to_top: {'gt_boxes': 2, 'data': 0, 'im_info': 1}
I0323 21:06:06.342847  2864 net.cpp:150] Setting up input-data
I0323 21:06:06.342880  2864 net.cpp:157] Top shape: 1 3 600 600 (1080000)
I0323 21:06:06.342890  2864 net.cpp:157] Top shape: 1 3 (3)
I0323 21:06:06.342900  2864 net.cpp:157] Top shape: 1 4 (4)
I0323 21:06:06.342906  2864 net.cpp:165] Memory required for data: 4320028
I0323 21:06:06.342921  2864 layer_factory.hpp:77] Creating layer data_input-data_0_split
I0323 21:06:06.344177  2864 net.cpp:106] Creating Layer data_input-data_0_split
I0323 21:06:06.344190  2864 net.cpp:454] data_input-data_0_split <- data
I0323 21:06:06.344203  2864 net.cpp:411] data_input-data_0_split -> data_input-data_0_split_0
I0323 21:06:06.344223  2864 net.cpp:411] data_input-data_0_split -> data_input-data_0_split_1
I0323 21:06:06.344288  2864 net.cpp:150] Setting up data_input-data_0_split
I0323 21:06:06.344301  2864 net.cpp:157] Top shape: 1 3 600 600 (1080000)
I0323 21:06:06.344313  2864 net.cpp:157] Top shape: 1 3 600 600 (1080000)
I0323 21:06:06.344319  2864 net.cpp:165] Memory required for data: 12960028
I0323 21:06:06.344327  2864 layer_factory.hpp:77] Creating layer im_info_input-data_1_split
I0323 21:06:06.344341  2864 net.cpp:106] Creating Layer im_info_input-data_1_split
I0323 21:06:06.344347  2864 net.cpp:454] im_info_input-data_1_split <- im_info
I0323 21:06:06.344360  2864 net.cpp:411] im_info_input-data_1_split -> im_info_input-data_1_split_0
I0323 21:06:06.344372  2864 net.cpp:411] im_info_input-data_1_split -> im_info_input-data_1_split_1
I0323 21:06:06.344415  2864 net.cpp:150] Setting up im_info_input-data_1_split
I0323 21:06:06.344429  2864 net.cpp:157] Top shape: 1 3 (3)
I0323 21:06:06.344439  2864 net.cpp:157] Top shape: 1 3 (3)
I0323 21:06:06.344444  2864 net.cpp:165] Memory required for data: 12960052
I0323 21:06:06.344452  2864 layer_factory.hpp:77] Creating layer gt_boxes_input-data_2_split
I0323 21:06:06.344462  2864 net.cpp:106] Creating Layer gt_boxes_input-data_2_split
I0323 21:06:06.344470  2864 net.cpp:454] gt_boxes_input-data_2_split <- gt_boxes
I0323 21:06:06.344480  2864 net.cpp:411] gt_boxes_input-data_2_split -> gt_boxes_input-data_2_split_0
I0323 21:06:06.344491  2864 net.cpp:411] gt_boxes_input-data_2_split -> gt_boxes_input-data_2_split_1
I0323 21:06:06.344538  2864 net.cpp:150] Setting up gt_boxes_input-data_2_split
I0323 21:06:06.344547  2864 net.cpp:157] Top shape: 1 4 (4)
I0323 21:06:06.344558  2864 net.cpp:157] Top shape: 1 4 (4)
I0323 21:06:06.344564  2864 net.cpp:165] Memory required for data: 12960084
I0323 21:06:06.344573  2864 layer_factory.hpp:77] Creating layer conv1
I0323 21:06:06.344596  2864 net.cpp:106] Creating Layer conv1
I0323 21:06:06.344604  2864 net.cpp:454] conv1 <- data_input-data_0_split_0
I0323 21:06:06.344617  2864 net.cpp:411] conv1 -> conv1
I0323 21:06:06.346525  2864 net.cpp:150] Setting up conv1
I0323 21:06:06.346545  2864 net.cpp:157] Top shape: 1 96 300 300 (8640000)
I0323 21:06:06.346554  2864 net.cpp:165] Memory required for data: 47520084
I0323 21:06:06.346585  2864 layer_factory.hpp:77] Creating layer relu1
I0323 21:06:06.346606  2864 net.cpp:106] Creating Layer relu1
I0323 21:06:06.346612  2864 net.cpp:454] relu1 <- conv1
I0323 21:06:06.346626  2864 net.cpp:397] relu1 -> conv1 (in-place)
I0323 21:06:06.346642  2864 net.cpp:150] Setting up relu1
I0323 21:06:06.346652  2864 net.cpp:157] Top shape: 1 96 300 300 (8640000)
I0323 21:06:06.346658  2864 net.cpp:165] Memory required for data: 82080084
I0323 21:06:06.346665  2864 layer_factory.hpp:77] Creating layer norm1
I0323 21:06:06.346678  2864 net.cpp:106] Creating Layer norm1
I0323 21:06:06.346684  2864 net.cpp:454] norm1 <- conv1
I0323 21:06:06.346695  2864 net.cpp:411] norm1 -> norm1
I0323 21:06:06.346843  2864 net.cpp:150] Setting up norm1
I0323 21:06:06.346856  2864 net.cpp:157] Top shape: 1 96 300 300 (8640000)
I0323 21:06:06.346863  2864 net.cpp:165] Memory required for data: 116640084
I0323 21:06:06.346870  2864 layer_factory.hpp:77] Creating layer pool1
I0323 21:06:06.346885  2864 net.cpp:106] Creating Layer pool1
I0323 21:06:06.346892  2864 net.cpp:454] pool1 <- norm1
I0323 21:06:06.346902  2864 net.cpp:411] pool1 -> pool1
I0323 21:06:06.346962  2864 net.cpp:150] Setting up pool1
I0323 21:06:06.346974  2864 net.cpp:157] Top shape: 1 96 151 151 (2188896)
I0323 21:06:06.346982  2864 net.cpp:165] Memory required for data: 125395668
I0323 21:06:06.346989  2864 layer_factory.hpp:77] Creating layer conv2
I0323 21:06:06.347005  2864 net.cpp:106] Creating Layer conv2
I0323 21:06:06.347012  2864 net.cpp:454] conv2 <- pool1
I0323 21:06:06.347039  2864 net.cpp:411] conv2 -> conv2
I0323 21:06:06.349287  2864 net.cpp:150] Setting up conv2
I0323 21:06:06.349304  2864 net.cpp:157] Top shape: 1 256 76 76 (1478656)
I0323 21:06:06.349313  2864 net.cpp:165] Memory required for data: 131310292
I0323 21:06:06.349331  2864 layer_factory.hpp:77] Creating layer relu2
I0323 21:06:06.349344  2864 net.cpp:106] Creating Layer relu2
I0323 21:06:06.349351  2864 net.cpp:454] relu2 <- conv2
I0323 21:06:06.349366  2864 net.cpp:397] relu2 -> conv2 (in-place)
I0323 21:06:06.349378  2864 net.cpp:150] Setting up relu2
I0323 21:06:06.349386  2864 net.cpp:157] Top shape: 1 256 76 76 (1478656)
I0323 21:06:06.349392  2864 net.cpp:165] Memory required for data: 137224916
I0323 21:06:06.349400  2864 layer_factory.hpp:77] Creating layer norm2
I0323 21:06:06.349411  2864 net.cpp:106] Creating Layer norm2
I0323 21:06:06.349416  2864 net.cpp:454] norm2 <- conv2
I0323 21:06:06.349429  2864 net.cpp:411] norm2 -> norm2
I0323 21:06:06.349552  2864 net.cpp:150] Setting up norm2
I0323 21:06:06.349563  2864 net.cpp:157] Top shape: 1 256 76 76 (1478656)
I0323 21:06:06.349571  2864 net.cpp:165] Memory required for data: 143139540
I0323 21:06:06.349578  2864 layer_factory.hpp:77] Creating layer pool2
I0323 21:06:06.349592  2864 net.cpp:106] Creating Layer pool2
I0323 21:06:06.349598  2864 net.cpp:454] pool2 <- norm2
I0323 21:06:06.349608  2864 net.cpp:411] pool2 -> pool2
I0323 21:06:06.349653  2864 net.cpp:150] Setting up pool2
I0323 21:06:06.349663  2864 net.cpp:157] Top shape: 1 256 39 39 (389376)
I0323 21:06:06.349670  2864 net.cpp:165] Memory required for data: 144697044
I0323 21:06:06.349678  2864 layer_factory.hpp:77] Creating layer conv3
I0323 21:06:06.349694  2864 net.cpp:106] Creating Layer conv3
I0323 21:06:06.349700  2864 net.cpp:454] conv3 <- pool2
I0323 21:06:06.349712  2864 net.cpp:411] conv3 -> conv3
I0323 21:06:06.354137  2864 net.cpp:150] Setting up conv3
I0323 21:06:06.354157  2864 net.cpp:157] Top shape: 1 384 39 39 (584064)
I0323 21:06:06.354166  2864 net.cpp:165] Memory required for data: 147033300
I0323 21:06:06.354185  2864 layer_factory.hpp:77] Creating layer relu3
I0323 21:06:06.354199  2864 net.cpp:106] Creating Layer relu3
I0323 21:06:06.354207  2864 net.cpp:454] relu3 <- conv3
I0323 21:06:06.354218  2864 net.cpp:397] relu3 -> conv3 (in-place)
I0323 21:06:06.354229  2864 net.cpp:150] Setting up relu3
I0323 21:06:06.354238  2864 net.cpp:157] Top shape: 1 384 39 39 (584064)
I0323 21:06:06.354243  2864 net.cpp:165] Memory required for data: 149369556
I0323 21:06:06.354250  2864 layer_factory.hpp:77] Creating layer conv4
I0323 21:06:06.354266  2864 net.cpp:106] Creating Layer conv4
I0323 21:06:06.354272  2864 net.cpp:454] conv4 <- conv3
I0323 21:06:06.354284  2864 net.cpp:411] conv4 -> conv4
I0323 21:06:06.359375  2864 net.cpp:150] Setting up conv4
I0323 21:06:06.359395  2864 net.cpp:157] Top shape: 1 384 39 39 (584064)
I0323 21:06:06.359401  2864 net.cpp:165] Memory required for data: 151705812
I0323 21:06:06.359414  2864 layer_factory.hpp:77] Creating layer relu4
I0323 21:06:06.359426  2864 net.cpp:106] Creating Layer relu4
I0323 21:06:06.359431  2864 net.cpp:454] relu4 <- conv4
I0323 21:06:06.359444  2864 net.cpp:397] relu4 -> conv4 (in-place)
I0323 21:06:06.359455  2864 net.cpp:150] Setting up relu4
I0323 21:06:06.359463  2864 net.cpp:157] Top shape: 1 384 39 39 (584064)
I0323 21:06:06.359469  2864 net.cpp:165] Memory required for data: 154042068
I0323 21:06:06.359477  2864 layer_factory.hpp:77] Creating layer conv5
I0323 21:06:06.359498  2864 net.cpp:106] Creating Layer conv5
I0323 21:06:06.359504  2864 net.cpp:454] conv5 <- conv4
I0323 21:06:06.359514  2864 net.cpp:411] conv5 -> conv5
I0323 21:06:06.362489  2864 net.cpp:150] Setting up conv5
I0323 21:06:06.362506  2864 net.cpp:157] Top shape: 1 256 39 39 (389376)
I0323 21:06:06.362514  2864 net.cpp:165] Memory required for data: 155599572
I0323 21:06:06.362534  2864 layer_factory.hpp:77] Creating layer relu5
I0323 21:06:06.362545  2864 net.cpp:106] Creating Layer relu5
I0323 21:06:06.362553  2864 net.cpp:454] relu5 <- conv5
I0323 21:06:06.362563  2864 net.cpp:397] relu5 -> conv5 (in-place)
I0323 21:06:06.362574  2864 net.cpp:150] Setting up relu5
I0323 21:06:06.362582  2864 net.cpp:157] Top shape: 1 256 39 39 (389376)
I0323 21:06:06.362588  2864 net.cpp:165] Memory required for data: 157157076
I0323 21:06:06.362596  2864 layer_factory.hpp:77] Creating layer conv5_relu5_0_split
I0323 21:06:06.362606  2864 net.cpp:106] Creating Layer conv5_relu5_0_split
I0323 21:06:06.362612  2864 net.cpp:454] conv5_relu5_0_split <- conv5
I0323 21:06:06.362627  2864 net.cpp:411] conv5_relu5_0_split -> conv5_relu5_0_split_0
I0323 21:06:06.362637  2864 net.cpp:411] conv5_relu5_0_split -> conv5_relu5_0_split_1
I0323 21:06:06.362682  2864 net.cpp:150] Setting up conv5_relu5_0_split
I0323 21:06:06.362691  2864 net.cpp:157] Top shape: 1 256 39 39 (389376)
I0323 21:06:06.362700  2864 net.cpp:157] Top shape: 1 256 39 39 (389376)
I0323 21:06:06.362706  2864 net.cpp:165] Memory required for data: 160272084
I0323 21:06:06.362715  2864 layer_factory.hpp:77] Creating layer rpn_conv/3x3
I0323 21:06:06.362733  2864 net.cpp:106] Creating Layer rpn_conv/3x3
I0323 21:06:06.362740  2864 net.cpp:454] rpn_conv/3x3 <- conv5_relu5_0_split_0
I0323 21:06:06.362751  2864 net.cpp:411] rpn_conv/3x3 -> rpn/output
I0323 21:06:06.376238  2864 net.cpp:150] Setting up rpn_conv/3x3
I0323 21:06:06.376257  2864 net.cpp:157] Top shape: 1 256 39 39 (389376)
I0323 21:06:06.376266  2864 net.cpp:165] Memory required for data: 161829588
I0323 21:06:06.376277  2864 layer_factory.hpp:77] Creating layer rpn_relu/3x3
I0323 21:06:06.376287  2864 net.cpp:106] Creating Layer rpn_relu/3x3
I0323 21:06:06.376293  2864 net.cpp:454] rpn_relu/3x3 <- rpn/output
I0323 21:06:06.376303  2864 net.cpp:397] rpn_relu/3x3 -> rpn/output (in-place)
I0323 21:06:06.376313  2864 net.cpp:150] Setting up rpn_relu/3x3
I0323 21:06:06.376322  2864 net.cpp:157] Top shape: 1 256 39 39 (389376)
I0323 21:06:06.376327  2864 net.cpp:165] Memory required for data: 163387092
I0323 21:06:06.376332  2864 layer_factory.hpp:77] Creating layer rpn/output_rpn_relu/3x3_0_split
I0323 21:06:06.376343  2864 net.cpp:106] Creating Layer rpn/output_rpn_relu/3x3_0_split
I0323 21:06:06.376348  2864 net.cpp:454] rpn/output_rpn_relu/3x3_0_split <- rpn/output
I0323 21:06:06.376359  2864 net.cpp:411] rpn/output_rpn_relu/3x3_0_split -> rpn/output_rpn_relu/3x3_0_split_0
I0323 21:06:06.376369  2864 net.cpp:411] rpn/output_rpn_relu/3x3_0_split -> rpn/output_rpn_relu/3x3_0_split_1
I0323 21:06:06.376410  2864 net.cpp:150] Setting up rpn/output_rpn_relu/3x3_0_split
I0323 21:06:06.376420  2864 net.cpp:157] Top shape: 1 256 39 39 (389376)
I0323 21:06:06.376428  2864 net.cpp:157] Top shape: 1 256 39 39 (389376)
I0323 21:06:06.376433  2864 net.cpp:165] Memory required for data: 166502100
I0323 21:06:06.376440  2864 layer_factory.hpp:77] Creating layer rpn_cls_score
I0323 21:06:06.376461  2864 net.cpp:106] Creating Layer rpn_cls_score
I0323 21:06:06.376466  2864 net.cpp:454] rpn_cls_score <- rpn/output_rpn_relu/3x3_0_split_0
I0323 21:06:06.376477  2864 net.cpp:411] rpn_cls_score -> rpn_cls_score
I0323 21:06:06.376860  2864 net.cpp:150] Setting up rpn_cls_score
I0323 21:06:06.376874  2864 net.cpp:157] Top shape: 1 18 39 39 (27378)
I0323 21:06:06.376881  2864 net.cpp:165] Memory required for data: 166611612
I0323 21:06:06.376893  2864 layer_factory.hpp:77] Creating layer rpn_cls_score_rpn_cls_score_0_split
I0323 21:06:06.376902  2864 net.cpp:106] Creating Layer rpn_cls_score_rpn_cls_score_0_split
I0323 21:06:06.376909  2864 net.cpp:454] rpn_cls_score_rpn_cls_score_0_split <- rpn_cls_score
I0323 21:06:06.376919  2864 net.cpp:411] rpn_cls_score_rpn_cls_score_0_split -> rpn_cls_score_rpn_cls_score_0_split_0
I0323 21:06:06.376929  2864 net.cpp:411] rpn_cls_score_rpn_cls_score_0_split -> rpn_cls_score_rpn_cls_score_0_split_1
I0323 21:06:06.376976  2864 net.cpp:150] Setting up rpn_cls_score_rpn_cls_score_0_split
I0323 21:06:06.376986  2864 net.cpp:157] Top shape: 1 18 39 39 (27378)
I0323 21:06:06.376996  2864 net.cpp:157] Top shape: 1 18 39 39 (27378)
I0323 21:06:06.377002  2864 net.cpp:165] Memory required for data: 166830636
I0323 21:06:06.377008  2864 layer_factory.hpp:77] Creating layer rpn_bbox_pred
I0323 21:06:06.377024  2864 net.cpp:106] Creating Layer rpn_bbox_pred
I0323 21:06:06.377032  2864 net.cpp:454] rpn_bbox_pred <- rpn/output_rpn_relu/3x3_0_split_1
I0323 21:06:06.377044  2864 net.cpp:411] rpn_bbox_pred -> rpn_bbox_pred
I0323 21:06:06.377496  2864 net.cpp:150] Setting up rpn_bbox_pred
I0323 21:06:06.377508  2864 net.cpp:157] Top shape: 1 36 39 39 (54756)
I0323 21:06:06.377516  2864 net.cpp:165] Memory required for data: 167049660
I0323 21:06:06.377526  2864 layer_factory.hpp:77] Creating layer rpn_bbox_pred_rpn_bbox_pred_0_split
I0323 21:06:06.377538  2864 net.cpp:106] Creating Layer rpn_bbox_pred_rpn_bbox_pred_0_split
I0323 21:06:06.377544  2864 net.cpp:454] rpn_bbox_pred_rpn_bbox_pred_0_split <- rpn_bbox_pred
I0323 21:06:06.377554  2864 net.cpp:411] rpn_bbox_pred_rpn_bbox_pred_0_split -> rpn_bbox_pred_rpn_bbox_pred_0_split_0
I0323 21:06:06.377564  2864 net.cpp:411] rpn_bbox_pred_rpn_bbox_pred_0_split -> rpn_bbox_pred_rpn_bbox_pred_0_split_1
I0323 21:06:06.377606  2864 net.cpp:150] Setting up rpn_bbox_pred_rpn_bbox_pred_0_split
I0323 21:06:06.377615  2864 net.cpp:157] Top shape: 1 36 39 39 (54756)
I0323 21:06:06.377624  2864 net.cpp:157] Top shape: 1 36 39 39 (54756)
I0323 21:06:06.377629  2864 net.cpp:165] Memory required for data: 167487708
I0323 21:06:06.377635  2864 layer_factory.hpp:77] Creating layer rpn_cls_score_reshape
I0323 21:06:06.377650  2864 net.cpp:106] Creating Layer rpn_cls_score_reshape
I0323 21:06:06.377656  2864 net.cpp:454] rpn_cls_score_reshape <- rpn_cls_score_rpn_cls_score_0_split_0
I0323 21:06:06.377668  2864 net.cpp:411] rpn_cls_score_reshape -> rpn_cls_score_reshape
I0323 21:06:06.377703  2864 net.cpp:150] Setting up rpn_cls_score_reshape
I0323 21:06:06.377712  2864 net.cpp:157] Top shape: 1 2 351 39 (27378)
I0323 21:06:06.377718  2864 net.cpp:165] Memory required for data: 167597220
I0323 21:06:06.377727  2864 layer_factory.hpp:77] Creating layer rpn_cls_score_reshape_rpn_cls_score_reshape_0_split
I0323 21:06:06.377738  2864 net.cpp:106] Creating Layer rpn_cls_score_reshape_rpn_cls_score_reshape_0_split
I0323 21:06:06.377743  2864 net.cpp:454] rpn_cls_score_reshape_rpn_cls_score_reshape_0_split <- rpn_cls_score_reshape
I0323 21:06:06.377753  2864 net.cpp:411] rpn_cls_score_reshape_rpn_cls_score_reshape_0_split -> rpn_cls_score_reshape_rpn_cls_score_reshape_0_split_0
I0323 21:06:06.377764  2864 net.cpp:411] rpn_cls_score_reshape_rpn_cls_score_reshape_0_split -> rpn_cls_score_reshape_rpn_cls_score_reshape_0_split_1
I0323 21:06:06.377810  2864 net.cpp:150] Setting up rpn_cls_score_reshape_rpn_cls_score_reshape_0_split
I0323 21:06:06.377818  2864 net.cpp:157] Top shape: 1 2 351 39 (27378)
I0323 21:06:06.377826  2864 net.cpp:157] Top shape: 1 2 351 39 (27378)
I0323 21:06:06.377832  2864 net.cpp:165] Memory required for data: 167816244
I0323 21:06:06.377838  2864 layer_factory.hpp:77] Creating layer rpn-data
I0323 21:06:06.410390  2864 net.cpp:106] Creating Layer rpn-data
I0323 21:06:06.410413  2864 net.cpp:454] rpn-data <- rpn_cls_score_rpn_cls_score_0_split_1
I0323 21:06:06.410425  2864 net.cpp:454] rpn-data <- gt_boxes_input-data_2_split_0
I0323 21:06:06.410432  2864 net.cpp:454] rpn-data <- im_info_input-data_1_split_0
I0323 21:06:06.410439  2864 net.cpp:454] rpn-data <- data_input-data_0_split_1
I0323 21:06:06.410451  2864 net.cpp:411] rpn-data -> rpn_labels
I0323 21:06:06.410471  2864 net.cpp:411] rpn-data -> rpn_bbox_targets
I0323 21:06:06.410485  2864 net.cpp:411] rpn-data -> rpn_bbox_inside_weights
I0323 21:06:06.410496  2864 net.cpp:411] rpn-data -> rpn_bbox_outside_weights
I0323 21:06:06.412786  2864 net.cpp:150] Setting up rpn-data
I0323 21:06:06.412811  2864 net.cpp:157] Top shape: 1 1 351 39 (13689)
I0323 21:06:06.412818  2864 net.cpp:157] Top shape: 1 36 39 39 (54756)
I0323 21:06:06.412824  2864 net.cpp:157] Top shape: 1 36 39 39 (54756)
I0323 21:06:06.412830  2864 net.cpp:157] Top shape: 1 36 39 39 (54756)
I0323 21:06:06.412834  2864 net.cpp:165] Memory required for data: 168528072
I0323 21:06:06.412842  2864 layer_factory.hpp:77] Creating layer rpn_loss_cls
I0323 21:06:06.412860  2864 net.cpp:106] Creating Layer rpn_loss_cls
I0323 21:06:06.412868  2864 net.cpp:454] rpn_loss_cls <- rpn_cls_score_reshape_rpn_cls_score_reshape_0_split_0
I0323 21:06:06.412879  2864 net.cpp:454] rpn_loss_cls <- rpn_labels
…
I0323 21:06:06.413933  2864 net.cpp:157] Top shape: (1)
I0323 21:06:06.413938  2864 net.cpp:160]     with loss weight 1
I0323 21:06:06.413947  2864 net.cpp:165] Memory required for data: 168528080
I0323 21:06:06.413959  2864 layer_factory.hpp:77] Creating layer rpn_cls_prob
I0323 21:06:06.413967  2864 net.cpp:106] Creating Layer rpn_cls_prob
I0323 21:06:06.413975  2864 net.cpp:454] rpn_cls_prob <- rpn_cls_score_reshape_rpn_cls_score_reshape_0_split_1
I0323 21:06:06.413986  2864 net.cpp:411] rpn_cls_prob -> rpn_cls_prob
I0323 21:06:06.414074  2864 net.cpp:150] Setting up rpn_cls_prob
I0323 21:06:06.414083  2864 net.cpp:157] Top shape: 1 2 351 39 (27378)
I0323 21:06:06.414089  2864 net.cpp:165] Memory required for data: 168637592
I0323 21:06:06.414096  2864 layer_factory.hpp:77] Creating layer rpn_cls_prob_reshape
I0323 21:06:06.414113  2864 net.cpp:106] Creating Layer rpn_cls_prob_reshape
I0323 21:06:06.414120  2864 net.cpp:454] rpn_cls_prob_reshape <- rpn_cls_prob
I0323 21:06:06.414129  2864 net.cpp:411] rpn_cls_prob_reshape -> rpn_cls_prob_reshape
I0323 21:06:06.414167  2864 net.cpp:150] Setting up rpn_cls_prob_reshape
I0323 21:06:06.414176  2864 net.cpp:157] Top shape: 1 18 39 39 (27378)
I0323 21:06:06.414182  2864 net.cpp:165] Memory required for data: 168747104
I0323 21:06:06.414187  2864 layer_factory.hpp:77] Creating layer proposal
I0323 21:06:06.459064  2864 net.cpp:106] Creating Layer proposal
I0323 21:06:06.459084  2864 net.cpp:454] proposal <- rpn_cls_prob_reshape
I0323 21:06:06.459095  2864 net.cpp:454] proposal <- rpn_bbox_pred_rpn_bbox_pred_0_split_1
I0323 21:06:06.459103  2864 net.cpp:454] proposal <- im_info_input-data_1_split_1
I0323 21:06:06.459113  2864 net.cpp:411] proposal -> rpn_rois
I0323 21:06:06.484532  2864 net.cpp:150] Setting up proposal
I0323 21:06:06.484556  2864 net.cpp:157] Top shape: 1 5 (5)
I0323 21:06:06.484563  2864 net.cpp:165] Memory required for data: 168747124
I0323 21:06:06.484570  2864 layer_factory.hpp:77] Creating layer roi-data
I0323 21:06:06.495618  2864 net.cpp:106] Creating Layer roi-data
I0323 21:06:06.495640  2864 net.cpp:454] roi-data <- rpn_rois
I0323 21:06:06.495651  2864 net.cpp:454] roi-data <- gt_boxes_input-data_2_split_1
I0323 21:06:06.495662  2864 net.cpp:411] roi-data -> rois
I0323 21:06:06.495676  2864 net.cpp:411] roi-data -> labels
I0323 21:06:06.495688  2864 net.cpp:411] roi-data -> bbox_targets
I0323 21:06:06.495700  2864 net.cpp:411] roi-data -> bbox_inside_weights
I0323 21:06:06.495710  2864 net.cpp:411] roi-data -> bbox_outside_weights
I0323 21:06:06.496534  2864 net.cpp:150] Setting up roi-data
I0323 21:06:06.496556  2864 net.cpp:157] Top shape: 1 5 (5)
I0323 21:06:06.496565  2864 net.cpp:157] Top shape: 1 1 (1)
I0323 21:06:06.496572  2864 net.cpp:157] Top shape: 1 8 (8)
I0323 21:06:06.496579  2864 net.cpp:157] Top shape: 1 8 (8)
I0323 21:06:06.496587  2864 net.cpp:157] Top shape: 1 8 (8)
I0323 21:06:06.496592  2864 net.cpp:165] Memory required for data: 168747244
I0323 21:06:06.496598  2864 layer_factory.hpp:77] Creating layer roi_pool_conv5
I0323 21:06:06.496618  2864 net.cpp:106] Creating Layer roi_pool_conv5
I0323 21:06:06.496626  2864 net.cpp:454] roi_pool_conv5 <- conv5_relu5_0_split_1
I0323 21:06:06.496636  2864 net.cpp:454] roi_pool_conv5 <- rois
I0323 21:06:06.496645  2864 net.cpp:411] roi_pool_conv5 -> roi_pool_conv5
I0323 21:06:06.496664  2864 roi_pooling_layer.cpp:30] Spatial scale: 0.0625
I0323 21:06:06.496726  2864 net.cpp:150] Setting up roi_pool_conv5
I0323 21:06:06.496736  2864 net.cpp:157] Top shape: 1 256 6 6 (9216)
I0323 21:06:06.496742  2864 net.cpp:165] Memory required for data: 168784108
I0323 21:06:06.496747  2864 layer_factory.hpp:77] Creating layer fc6
I0323 21:06:06.496760  2864 net.cpp:106] Creating Layer fc6
I0323 21:06:06.496767  2864 net.cpp:454] fc6 <- roi_pool_conv5
I0323 21:06:06.496778  2864 net.cpp:411] fc6 -> fc6
I0323 21:06:06.625795  2864 net.cpp:150] Setting up fc6
I0323 21:06:06.625839  2864 net.cpp:157] Top shape: 1 4096 (4096)
I0323 21:06:06.625847  2864 net.cpp:165] Memory required for data: 168800492
I0323 21:06:06.625870  2864 layer_factory.hpp:77] Creating layer relu6
I0323 21:06:06.625885  2864 net.cpp:106] Creating Layer relu6
I0323 21:06:06.625892  2864 net.cpp:454] relu6 <- fc6
I0323 21:06:06.625903  2864 net.cpp:397] relu6 -> fc6 (in-place)
I0323 21:06:06.625917  2864 net.cpp:150] Setting up relu6
I0323 21:06:06.625924  2864 net.cpp:157] Top shape: 1 4096 (4096)
I0323 21:06:06.625928  2864 net.cpp:165] Memory required for data: 168816876
I0323 21:06:06.625933  2864 layer_factory.hpp:77] Creating layer drop6
I0323 21:06:06.625958  2864 net.cpp:106] Creating Layer drop6
I0323 21:06:06.625965  2864 net.cpp:454] drop6 <- fc6
I0323 21:06:06.625972  2864 net.cpp:397] drop6 -> fc6 (in-place)
I0323 21:06:06.626006  2864 net.cpp:150] Setting up drop6
I0323 21:06:06.626013  2864 net.cpp:157] Top shape: 1 4096 (4096)
I0323 21:06:06.626019  2864 net.cpp:165] Memory required for data: 168833260
I0323 21:06:06.626024  2864 layer_factory.hpp:77] Creating layer fc7
I0323 21:06:06.626035  2864 net.cpp:106] Creating Layer fc7
I0323 21:06:06.626040  2864 net.cpp:454] fc7 <- fc6
I0323 21:06:06.626049  2864 net.cpp:411] fc7 -> fc7
I0323 21:06:06.682217  2864 net.cpp:150] Setting up fc7
I0323 21:06:06.682252  2864 net.cpp:157] Top shape: 1 4096 (4096)
I0323 21:06:06.682257  2864 net.cpp:165] Memory required for data: 168849644
I0323 21:06:06.682270  2864 layer_factory.hpp:77] Creating layer relu7
I0323 21:06:06.682286  2864 net.cpp:106] Creating Layer relu7
I0323 21:06:06.682292  2864 net.cpp:454] relu7 <- fc7
I0323 21:06:06.682302  2864 net.cpp:397] relu7 -> fc7 (in-place)
I0323 21:06:06.682315  2864 net.cpp:150] Setting up relu7
I0323 21:06:06.682320  2864 net.cpp:157] Top shape: 1 4096 (4096)
I0323 21:06:06.682324  2864 net.cpp:165] Memory required for data: 168866028
I0323 21:06:06.682328  2864 layer_factory.hpp:77] Creating layer drop7
I0323 21:06:06.682339  2864 net.cpp:106] Creating Layer drop7
I0323 21:06:06.682343  2864 net.cpp:454] drop7 <- fc7
I0323 21:06:06.682348  2864 net.cpp:397] drop7 -> fc7 (in-place)
I0323 21:06:06.682379  2864 net.cpp:150] Setting up drop7
I0323 21:06:06.682384  2864 net.cpp:157] Top shape: 1 4096 (4096)
I0323 21:06:06.682389  2864 net.cpp:165] Memory required for data: 168882412
I0323 21:06:06.682394  2864 layer_factory.hpp:77] Creating layer fc7_drop7_0_split
I0323 21:06:06.682404  2864 net.cpp:106] Creating Layer fc7_drop7_0_split
I0323 21:06:06.682410  2864 net.cpp:454] fc7_drop7_0_split <- fc7
I0323 21:06:06.682415  2864 net.cpp:411] fc7_drop7_0_split -> fc7_drop7_0_split_0
I0323 21:06:06.682425  2864 net.cpp:411] fc7_drop7_0_split -> fc7_drop7_0_split_1
I0323 21:06:06.682469  2864 net.cpp:150] Setting up fc7_drop7_0_split
I0323 21:06:06.682476  2864 net.cpp:157] Top shape: 1 4096 (4096)
I0323 21:06:06.682481  2864 net.cpp:157] Top shape: 1 4096 (4096)
I0323 21:06:06.682484  2864 net.cpp:165] Memory required for data: 168915180
I0323 21:06:06.682487  2864 layer_factory.hpp:77] Creating layer cls_score
I0323 21:06:06.682499  2864 net.cpp:106] Creating Layer cls_score
I0323 21:06:06.682503  2864 net.cpp:454] cls_score <- fc7_drop7_0_split_0
I0323 21:06:06.682512  2864 net.cpp:411] cls_score -> cls_score
I0323 21:06:06.682775  2864 net.cpp:150] Setting up cls_score
I0323 21:06:06.682783  2864 net.cpp:157] Top shape: 1 2 (2)
I0323 21:06:06.682786  2864 net.cpp:165] Memory required for data: 168915188
I0323 21:06:06.682795  2864 layer_factory.hpp:77] Creating layer bbox_pred
I0323 21:06:06.682804  2864 net.cpp:106] Creating Layer bbox_pred
I0323 21:06:06.682811  2864 net.cpp:454] bbox_pred <- fc7_drop7_0_split_1
I0323 21:06:06.682817  2864 net.cpp:411] bbox_pred -> bbox_pred
I0323 21:06:06.683558  2864 net.cpp:150] Setting up bbox_pred
I0323 21:06:06.683568  2864 net.cpp:157] Top shape: 1 8 (8)
I0323 21:06:06.683571  2864 net.cpp:165] Memory required for data: 168915220
I0323 21:06:06.683579  2864 layer_factory.hpp:77] Creating layer loss_cls
I0323 21:06:06.683590  2864 net.cpp:106] Creating Layer loss_cls
I0323 21:06:06.683595  2864 net.cpp:454] loss_cls <- cls_score
I0323 21:06:06.683601  2864 net.cpp:454] loss_cls <- labels
I0323 21:06:06.683609  2864 net.cpp:411] loss_cls -> cls_loss
…
           'USE_FLIPPED': True,
           'USE_PREFETCH': False},
 'USE_GPU_NMS': False}
../../tools/test_net.py:80: RuntimeWarning: to-Python converter for boost::shared_ptr<caffe::Blob<float> > already registered; second conversion method ignored.
  caffe.set_mode_gpu()
WARNING: Logging before InitGoogleLogging() is written to STDERR
I0323 21:23:02.500985  3312 net.cpp:49] Initializing net from parameters: 
name: "ZF"
input: "data"
input: "im_info"
state {
  phase: TEST
}
input_shape {
  dim: 1
  dim: 3
  dim: 224
  dim: 224
}
input_shape {
  dim: 1
  dim: 3
}
layer {
  name: "conv1"
  type: "Convolution"
  bottom: "data"
  top: "conv1"
  convolution_param {
    num_output: 96
    pad: 3
    kernel_size: 7
    stride: 2
  }
}
layer {
  name: "relu1"
  type: "ReLU"
  bottom: "conv1"
  top: "conv1"
}
layer {
  name: "norm1"
  type: "LRN"
  bottom: "conv1"
  top: "norm1"
  lrn_param {
    local_size: 3
    alpha: 5e-05
    beta: 0.75
    norm_region: WITHIN_CHANNEL
    engine: CAFFE
  }
}
layer {
  name: "pool1"
  type: "Pooling"
  bottom: "norm1"
  top: "pool1"
  pooling_param {
    pool: MAX
    kernel_size: 3
    stride: 2
    pad: 1
  }
}
layer {
  name: "conv2"
  type: "Convolution"
  bottom: "pool1"
  top: "conv2"
  convolution_param {
    num_output: 256
    pad: 2
    kernel_size: 5
    stride: 2
  }
}
layer {
  name: "relu2"
  type: "ReLU"
  bottom: "conv2"
  top: "conv2"
}
layer {
  name: "norm2"
  type: "LRN"
  bottom: "conv2"
  top: "norm2"
  lrn_param {
    local_size: 3
    alpha: 5e-05
    beta: 0.75
    norm_region: WITHIN_CHANNEL
    engine: CAFFE
  }
}
layer {
  name: "pool2"
  type: "Pooling"
  bottom: "norm2"
  top: "pool2"
  pooling_param {
    pool: MAX
    kernel_size: 3
    stride: 2
    pad: 1
  }
}
layer {
  name: "conv3"
  type: "Convolution"
  bottom: "pool2"
  top: "conv3"
  convolution_param {
    num_output: 384
    pad: 1
    kernel_size: 3
    stride: 1
  }
}
layer {
  name: "relu3"
  type: "ReLU"
  bottom: "conv3"
  top: "conv3"
}
layer {
  name: "conv4"
  type: "Convolution"
  bottom: "conv3"
  top: "conv4"
  convolution_param {
    num_output: 384
    pad: 1
    kernel_size: 3
    stride: 1
  }
}
layer {
  name: "relu4"
  type: "ReLU"
  bottom: "conv4"
  top: "conv4"
}
layer {
  name: "conv5"
  type: "Convolution"
  bottom: "conv4"
  top: "conv5"
  convolution_param {
    num_output: 256
    pad: 1
    kernel_size: 3
    stride: 1
  }
}
layer {
  name: "relu5"
  type: "ReLU"
  bottom: "conv5"
  top: "conv5"
}
layer {
  name: "rpn_conv/3x3"
  type: "Convolution"
  bottom: "conv5"
  top: "rpn/output"
  convolution_param {
    num_output: 256
    pad: 1
    kernel_size: 3
    stride: 1
    weight_filler {
      type: "gaussian"
      std: 0.01
    }
    bias_filler {
      type: "constant"
      value: 0
    }
  }
}
layer {
  name: "rpn_relu/3x3"
  type: "ReLU"
  bottom: "rpn/output"
  top: "rpn/output"
}
layer {
  name: "rpn_cls_score"
  type: "Convolution"
  bottom: "rpn/output"
  top: "rpn_cls_score"
  convolution_param {
    num_output: 18
    pad: 0
    kernel_size: 1
    stride: 1
    weight_filler {
      type: "gaussian"
      std: 0.01
    }
    bias_filler {
      type: "constant"
      value: 0
    }
  }
}
layer {
  name: "rpn_bbox_pred"
  type: "Convolution"
  bottom: "rpn/output"
  top: "rpn_bbox_pred"
  convolution_param {
    num_output: 36
    pad: 0
    kernel_size: 1
    stride: 1
    weight_filler {
      type: "gaussian"
      std: 0.01
    }
    bias_filler {
      type: "constant"
      value: 0
    }
  }
}
layer {
  name: "rpn_cls_score_reshape"
  type: "Reshape"
  bottom: "rpn_cls_score"
  top: "rpn_cls_score_reshape"
  reshape_param {
    shape {
      dim: 0
      dim: 2
      dim: -1
      dim: 0
    }
  }
}
layer {
  name: "rpn_cls_prob"
  type: "Softmax"
  bottom: "rpn_cls_score_reshape"
  top: "rpn_cls_prob"
}
layer {
  name: "rpn_cls_prob_reshape"
  type: "Reshape"
  bottom: "rpn_cls_prob"
  top: "rpn_cls_prob_reshape"
  reshape_param {
    shape {
      dim: 0
      dim: 18
      dim: -1
      dim: 0
    }
  }
}
layer {
  name: "proposal"
  type: "Python"
  bottom: "rpn_cls_prob_reshape"
  bottom: "rpn_bbox_pred"
  bottom: "im_info"
  top: "rois"
  python_param {
    module: "rpn.proposal_layer"
    layer: "ProposalLayer"
    param_str: "\'feat_stride\': 16"
  }
}
layer {
  name: "roi_pool_conv5"
  type: "ROIPooling"
  bottom: "conv5"
  bottom: "rois"
  top: "roi_pool_conv5"
  roi_pooling_param {
    pooled_h: 6
    pooled_w: 6
    spatial_scale: 0.0625
  }
}
layer {
  name: "fc6"
  type: "InnerProduct"
  bottom: "roi_pool_conv5"
  top: "fc6"
  inner_product_param {
    num_output: 4096
  }
}
layer {
  name: "relu6"
  type: "ReLU"
  bottom: "fc6"
  top: "fc6"
}
layer {
  name: "drop6"
  type: "Dropout"
  bottom: "fc6"
  top: "fc6"
  dropout_param {
    dropout_ratio: 0.5
    scale_train: false
  }
}
layer {
  name: "fc7"
  type: "InnerProduct"
  bottom: "fc6"
  top: "fc7"
  inner_product_param {
    num_output: 4096
  }
}
layer {
  name: "relu7"
  type: "ReLU"
  bottom: "fc7"
  top: "fc7"
}
layer {
  name: "drop7"
  type: "Dropout"
  bottom: "fc7"
  top: "fc7"
  dropout_param {
    dropout_ratio: 0.5
    scale_train: false
  }
}
layer {
  name: "cls_score"
  type: "InnerProduct"
  bottom: "fc7"
  top: "cls_score"
  inner_product_param {
    num_output: 2
  }
}
layer {
  name: "bbox_pred"
  type: "InnerProduct"
  bottom: "fc7"
  top: "bbox_pred"
  inner_product_param {
    num_output: 8
  }
}
layer {
  name: "cls_prob"
  type: "Softmax"
  bottom: "cls_score"
  top: "cls_prob"
  loss_param {
    ignore_label: -1
    normalize: true
  }
}
I0323 21:23:02.501263  3312 net.cpp:413] Input 0 -> data
I0323 21:23:02.542593  3312 net.cpp:413] Input 1 -> im_info
I0323 21:23:02.542659  3312 layer_factory.hpp:77] Creating layer conv1
I0323 21:23:02.542686  3312 net.cpp:106] Creating Layer conv1
I0323 21:23:02.542692  3312 net.cpp:454] conv1 <- data
I0323 21:23:02.542701  3312 net.cpp:411] conv1 -> conv1
I0323 21:23:02.543710  3312 net.cpp:150] Setting up conv1
I0323 21:23:02.543730  3312 net.cpp:157] Top shape: 1 96 112 112 (1204224)
I0323 21:23:02.543735  3312 net.cpp:165] Memory required for data: 4816896
I0323 21:23:02.543752  3312 layer_factory.hpp:77] Creating layer relu1
I0323 21:23:02.543766  3312 net.cpp:106] Creating Layer relu1
I0323 21:23:02.543771  3312 net.cpp:454] relu1 <- conv1
I0323 21:23:02.543777  3312 net.cpp:397] relu1 -> conv1 (in-place)
I0323 21:23:02.543788  3312 net.cpp:150] Setting up relu1
I0323 21:23:02.543795  3312 net.cpp:157] Top shape: 1 96 112 112 (1204224)
I0323 21:23:02.543800  3312 net.cpp:165] Memory required for data: 9633792
I0323 21:23:02.543803  3312 layer_factory.hpp:77] Creating layer norm1
I0323 21:23:02.543815  3312 net.cpp:106] Creating Layer norm1
I0323 21:23:02.543820  3312 net.cpp:454] norm1 <- conv1
I0323 21:23:02.543825  3312 net.cpp:411] norm1 -> norm1
I0323 21:23:02.543969  3312 net.cpp:150] Setting up norm1
I0323 21:23:02.543978  3312 net.cpp:157] Top shape: 1 96 112 112 (1204224)
I0323 21:23:02.543983  3312 net.cpp:165] Memory required for data: 14450688
I0323 21:23:02.543989  3312 layer_factory.hpp:77] Creating layer pool1
I0323 21:23:02.543998  3312 net.cpp:106] Creating Layer pool1
I0323 21:23:02.544001  3312 net.cpp:454] pool1 <- norm1
I0323 21:23:02.544009  3312 net.cpp:411] pool1 -> pool1
I0323 21:23:02.544051  3312 net.cpp:150] Setting up pool1
I0323 21:23:02.544059  3312 net.cpp:157] Top shape: 1 96 57 57 (311904)
I0323 21:23:02.544062  3312 net.cpp:165] Memory required for data: 15698304
I0323 21:23:02.544067  3312 layer_factory.hpp:77] Creating layer conv2
I0323 21:23:02.544080  3312 net.cpp:106] Creating Layer conv2
I0323 21:23:02.544085  3312 net.cpp:454] conv2 <- pool1
I0323 21:23:02.544090  3312 net.cpp:411] conv2 -> conv2
I0323 21:23:02.547312  3312 net.cpp:150] Setting up conv2
I0323 21:23:02.547330  3312 net.cpp:157] Top shape: 1 256 29 29 (215296)
I0323 21:23:02.547334  3312 net.cpp:165] Memory required for data: 16559488
I0323 21:23:02.547348  3312 layer_factory.hpp:77] Creating layer relu2
I0323 21:23:02.547360  3312 net.cpp:106] Creating Layer relu2
I0323 21:23:02.547366  3312 net.cpp:454] relu2 <- conv2
I0323 21:23:02.547374  3312 net.cpp:397] relu2 -> conv2 (in-place)
I0323 21:23:02.547384  3312 net.cpp:150] Setting up relu2
I0323 21:23:02.547390  3312 net.cpp:157] Top shape: 1 256 29 29 (215296)
I0323 21:23:02.547395  3312 net.cpp:165] Memory required for data: 17420672
I0323 21:23:02.547400  3312 layer_factory.hpp:77] Creating layer norm2
I0323 21:23:02.547410  3312 net.cpp:106] Creating Layer norm2
I0323 21:23:02.547415  3312 net.cpp:454] norm2 <- conv2
I0323 21:23:02.547421  3312 net.cpp:411] norm2 -> norm2
I0323 21:23:02.547549  3312 net.cpp:150] Setting up norm2
I0323 21:23:02.547560  3312 net.cpp:157] Top shape: 1 256 29 29 (215296)
I0323 21:23:02.547564  3312 net.cpp:165] Memory required for data: 18281856
I0323 21:23:02.547570  3312 layer_factory.hpp:77] Creating layer pool2
I0323 21:23:02.547579  3312 net.cpp:106] Creating Layer pool2
I0323 21:23:02.547585  3312 net.cpp:454] pool2 <- norm2
I0323 21:23:02.547592  3312 net.cpp:411] pool2 -> pool2
I0323 21:23:02.547636  3312 net.cpp:150] Setting up pool2
I0323 21:23:02.547644  3312 net.cpp:157] Top shape: 1 256 15 15 (57600)
I0323 21:23:02.547647  3312 net.cpp:165] Memory required for data: 18512256
I0323 21:23:02.547652  3312 layer_factory.hpp:77] Creating layer conv3
I0323 21:23:02.547667  3312 net.cpp:106] Creating Layer conv3
I0323 21:23:02.547674  3312 net.cpp:454] conv3 <- pool2
I0323 21:23:02.547685  3312 net.cpp:411] conv3 -> conv3
I0323 21:23:02.550668  3312 net.cpp:150] Setting up conv3
I0323 21:23:02.550683  3312 net.cpp:157] Top shape: 1 384 15 15 (86400)
I0323 21:23:02.550686  3312 net.cpp:165] Memory required for data: 18857856
I0323 21:23:02.550698  3312 layer_factory.hpp:77] Creating layer relu3
I0323 21:23:02.550709  3312 net.cpp:106] Creating Layer relu3
I0323 21:23:02.550714  3312 net.cpp:454] relu3 <- conv3
I0323 21:23:02.550719  3312 net.cpp:397] relu3 -> conv3 (in-place)
I0323 21:23:02.550729  3312 net.cpp:150] Setting up relu3
I0323 21:23:02.550734  3312 net.cpp:157] Top shape: 1 384 15 15 (86400)
I0323 21:23:02.550737  3312 net.cpp:165] Memory required for data: 19203456
I0323 21:23:02.550741  3312 layer_factory.hpp:77] Creating layer conv4
I0323 21:23:02.550751  3312 net.cpp:106] Creating Layer conv4
I0323 21:23:02.550756  3312 net.cpp:454] conv4 <- conv3
I0323 21:23:02.550761  3312 net.cpp:411] conv4 -> conv4
I0323 21:23:02.554978  3312 net.cpp:150] Setting up conv4
I0323 21:23:02.554994  3312 net.cpp:157] Top shape: 1 384 15 15 (86400)
I0323 21:23:02.554999  3312 net.cpp:165] Memory required for data: 19549056
I0323 21:23:02.555008  3312 layer_factory.hpp:77] Creating layer relu4
I0323 21:23:02.555017  3312 net.cpp:106] Creating Layer relu4
I0323 21:23:02.555022  3312 net.cpp:454] relu4 <- conv4
I0323 21:23:02.555029  3312 net.cpp:397] relu4 -> conv4 (in-place)
I0323 21:23:02.555037  3312 net.cpp:150] Setting up relu4
I0323 21:23:02.555043  3312 net.cpp:157] Top shape: 1 384 15 15 (86400)
I0323 21:23:02.555048  3312 net.cpp:165] Memory required for data: 19894656
I0323 21:23:02.555052  3312 layer_factory.hpp:77] Creating layer conv5
I0323 21:23:02.555063  3312 net.cpp:106] Creating Layer conv5
I0323 21:23:02.555068  3312 net.cpp:454] conv5 <- conv4
I0323 21:23:02.555075  3312 net.cpp:411] conv5 -> conv5
I0323 21:23:02.557955  3312 net.cpp:150] Setting up conv5
I0323 21:23:02.557971  3312 net.cpp:157] Top shape: 1 256 15 15 (57600)
I0323 21:23:02.557976  3312 net.cpp:165] Memory required for data: 20125056
I0323 21:23:02.557996  3312 layer_factory.hpp:77] Creating layer relu5
I0323 21:23:02.558004  3312 net.cpp:106] Creating Layer relu5
I0323 21:23:02.558009  3312 net.cpp:454] relu5 <- conv5
I0323 21:23:02.558017  3312 net.cpp:397] relu5 -> conv5 (in-place)
I0323 21:23:02.558025  3312 net.cpp:150] Setting up relu5
I0323 21:23:02.558032  3312 net.cpp:157] Top shape: 1 256 15 15 (57600)
I0323 21:23:02.558034  3312 net.cpp:165] Memory required for data: 20355456
I0323 21:23:02.558038  3312 layer_factory.hpp:77] Creating layer conv5_relu5_0_split
I0323 21:23:02.558050  3312 net.cpp:106] Creating Layer conv5_relu5_0_split
I0323 21:23:02.558054  3312 net.cpp:454] conv5_relu5_0_split <- conv5
I0323 21:23:02.558063  3312 net.cpp:411] conv5_relu5_0_split -> conv5_relu5_0_split_0
I0323 21:23:02.558071  3312 net.cpp:411] conv5_relu5_0_split -> conv5_relu5_0_split_1
I0323 21:23:02.558112  3312 net.cpp:150] Setting up conv5_relu5_0_split
I0323 21:23:02.558120  3312 net.cpp:157] Top shape: 1 256 15 15 (57600)
I0323 21:23:02.558125  3312 net.cpp:157] Top shape: 1 256 15 15 (57600)
I0323 21:23:02.558130  3312 net.cpp:165] Memory required for data: 20816256
I0323 21:23:02.558133  3312 layer_factory.hpp:77] Creating layer rpn_conv/3x3
I0323 21:23:02.558148  3312 net.cpp:106] Creating Layer rpn_conv/3x3
I0323 21:23:02.558153  3312 net.cpp:454] rpn_conv/3x3 <- conv5_relu5_0_split_0
I0323 21:23:02.558159  3312 net.cpp:411] rpn_conv/3x3 -> rpn/output
I0323 21:23:02.572001  3312 net.cpp:150] Setting up rpn_conv/3x3
I0323 21:23:02.572016  3312 net.cpp:157] Top shape: 1 256 15 15 (57600)
I0323 21:23:02.572019  3312 net.cpp:165] Memory required for data: 21046656
I0323 21:23:02.572026  3312 layer_factory.hpp:77] Creating layer rpn_relu/3x3
I0323 21:23:02.572036  3312 net.cpp:106] Creating Layer rpn_relu/3x3
I0323 21:23:02.572043  3312 net.cpp:454] rpn_relu/3x3 <- rpn/output
I0323 21:23:02.572049  3312 net.cpp:397] rpn_relu/3x3 -> rpn/output (in-place)
I0323 21:23:02.572057  3312 net.cpp:150] Setting up rpn_relu/3x3
I0323 21:23:02.572063  3312 net.cpp:157] Top shape: 1 256 15 15 (57600)
I0323 21:23:02.572067  3312 net.cpp:165] Memory required for data: 21277056
I0323 21:23:02.572070  3312 layer_factory.hpp:77] Creating layer rpn/output_rpn_relu/3x3_0_split
I0323 21:23:02.572077  3312 net.cpp:106] Creating Layer rpn/output_rpn_relu/3x3_0_split
I0323 21:23:02.572080  3312 net.cpp:454] rpn/output_rpn_relu/3x3_0_split <- rpn/output
I0323 21:23:02.572085  3312 net.cpp:411] rpn/output_rpn_relu/3x3_0_split -> rpn/output_rpn_relu/3x3_0_split_0
I0323 21:23:02.572093  3312 net.cpp:411] rpn/output_rpn_relu/3x3_0_split -> rpn/output_rpn_relu/3x3_0_split_1
I0323 21:23:02.572129  3312 net.cpp:150] Setting up rpn/output_rpn_relu/3x3_0_split
I0323 21:23:02.572136  3312 net.cpp:157] Top shape: 1 256 15 15 (57600)
I0323 21:23:02.572141  3312 net.cpp:157] Top shape: 1 256 15 15 (57600)
I0323 21:23:02.572145  3312 net.cpp:165] Memory required for data: 21737856
I0323 21:23:02.572149  3312 layer_factory.hpp:77] Creating layer rpn_cls_score
I0323 21:23:02.572160  3312 net.cpp:106] Creating Layer rpn_cls_score
I0323 21:23:02.572163  3312 net.cpp:454] rpn_cls_score <- rpn/output_rpn_relu/3x3_0_split_0
I0323 21:23:02.572171  3312 net.cpp:411] rpn_cls_score -> rpn_cls_score
I0323 21:23:02.572486  3312 net.cpp:150] Setting up rpn_cls_score
I0323 21:23:02.572495  3312 net.cpp:157] Top shape: 1 18 15 15 (4050)
I0323 21:23:02.572499  3312 net.cpp:165] Memory required for data: 21754056
I0323 21:23:02.572505  3312 layer_factory.hpp:77] Creating layer rpn_bbox_pred
I0323 21:23:02.572517  3312 net.cpp:106] Creating Layer rpn_bbox_pred
I0323 21:23:02.572521  3312 net.cpp:454] rpn_bbox_pred <- rpn/output_rpn_relu/3x3_0_split_1
I0323 21:23:02.572528  3312 net.cpp:411] rpn_bbox_pred -> rpn_bbox_pred
I0323 21:23:02.572932  3312 net.cpp:150] Setting up rpn_bbox_pred
I0323 21:23:02.572940  3312 net.cpp:157] Top shape: 1 36 15 15 (8100)
I0323 21:23:02.572944  3312 net.cpp:165] Memory required for data: 21786456
I0323 21:23:02.572955  3312 layer_factory.hpp:77] Creating layer rpn_cls_score_reshape
I0323 21:23:02.572969  3312 net.cpp:106] Creating Layer rpn_cls_score_reshape
I0323 21:23:02.572974  3312 net.cpp:454] rpn_cls_score_reshape <- rpn_cls_score
I0323 21:23:02.572980  3312 net.cpp:411] rpn_cls_score_reshape -> rpn_cls_score_reshape
I0323 21:23:02.573014  3312 net.cpp:150] Setting up rpn_cls_score_reshape
I0323 21:23:02.573020  3312 net.cpp:157] Top shape: 1 2 135 15 (4050)
I0323 21:23:02.573024  3312 net.cpp:165] Memory required for data: 21802656
I0323 21:23:02.573027  3312 layer_factory.hpp:77] Creating layer rpn_cls_prob
I0323 21:23:02.573035  3312 net.cpp:106] Creating Layer rpn_cls_prob
I0323 21:23:02.573038  3312 net.cpp:454] rpn_cls_prob <- rpn_cls_score_reshape
I0323 21:23:02.573045  3312 net.cpp:411] rpn_cls_prob -> rpn_cls_prob
I0323 21:23:02.573107  3312 net.cpp:150] Setting up rpn_cls_prob
I0323 21:23:02.573113  3312 net.cpp:157] Top shape: 1 2 135 15 (4050)
I0323 21:23:02.573117  3312 net.cpp:165] Memory required for data: 21818856
I0323 21:23:02.573120  3312 layer_factory.hpp:77] Creating layer rpn_cls_prob_reshape
I0323 21:23:02.573127  3312 net.cpp:106] Creating Layer rpn_cls_prob_reshape
I0323 21:23:02.573132  3312 net.cpp:454] rpn_cls_prob_reshape <- rpn_cls_prob
I0323 21:23:02.573140  3312 net.cpp:411] rpn_cls_prob_reshape -> rpn_cls_prob_reshape
I0323 21:23:02.573161  3312 net.cpp:150] Setting up rpn_cls_prob_reshape
I0323 21:23:02.573168  3312 net.cpp:157] Top shape: 1 18 15 15 (4050)
I0323 21:23:02.573171  3312 net.cpp:165] Memory required for data: 21835056
I0323 21:23:02.573174  3312 layer_factory.hpp:77] Creating layer proposal
I0323 21:23:02.575613  3312 net.cpp:106] Creating Layer proposal
I0323 21:23:02.575625  3312 net.cpp:454] proposal <- rpn_cls_prob_reshape
I0323 21:23:02.575633  3312 net.cpp:454] proposal <- rpn_bbox_pred
I0323 21:23:02.575639  3312 net.cpp:454] proposal <- im_info
I0323 21:23:02.575644  3312 net.cpp:411] proposal -> rois
I0323 21:23:02.576447  3312 net.cpp:150] Setting up proposal
I0323 21:23:02.576462  3312 net.cpp:157] Top shape: 1 5 (5)
I0323 21:23:02.576465  3312 net.cpp:165] Memory required for data: 21835076
I0323 21:23:02.576469  3312 layer_factory.hpp:77] Creating layer roi_pool_conv5
I0323 21:23:02.576480  3312 net.cpp:106] Creating Layer roi_pool_conv5
I0323 21:23:02.576485  3312 net.cpp:454] roi_pool_conv5 <- conv5_relu5_0_split_1
I0323 21:23:02.576491  3312 net.cpp:454] roi_pool_conv5 <- rois
I0323 21:23:02.576498  3312 net.cpp:411] roi_pool_conv5 -> roi_pool_conv5
I0323 21:23:02.576508  3312 roi_pooling_layer.cpp:30] Spatial scale: 0.0625
I0323 21:23:02.576560  3312 net.cpp:150] Setting up roi_pool_conv5
I0323 21:23:02.576565  3312 net.cpp:157] Top shape: 1 256 6 6 (9216)
I0323 21:23:02.576570  3312 net.cpp:165] Memory required for data: 21871940
I0323 21:23:02.576573  3312 layer_factory.hpp:77] Creating layer fc6
I0323 21:23:02.576582  3312 net.cpp:106] Creating Layer fc6
I0323 21:23:02.576586  3312 net.cpp:454] fc6 <- roi_pool_conv5
I0323 21:23:02.576591  3312 net.cpp:411] fc6 -> fc6
I0323 21:23:02.676219  3312 net.cpp:150] Setting up fc6
I0323 21:23:02.676254  3312 net.cpp:157] Top shape: 1 4096 (4096)
I0323 21:23:02.676259  3312 net.cpp:165] Memory required for data: 21888324
I0323 21:23:02.676282  3312 layer_factory.hpp:77] Creating layer relu6
I0323 21:23:02.676295  3312 net.cpp:106] Creating Layer relu6
I0323 21:23:02.676301  3312 net.cpp:454] relu6 <- fc6
I0323 21:23:02.676307  3312 net.cpp:397] relu6 -> fc6 (in-place)
I0323 21:23:02.676317  3312 net.cpp:150] Setting up relu6
I0323 21:23:02.676322  3312 net.cpp:157] Top shape: 1 4096 (4096)
I0323 21:23:02.676326  3312 net.cpp:165] Memory required for data: 21904708
I0323 21:23:02.676329  3312 layer_factory.hpp:77] Creating layer drop6
I0323 21:23:02.676342  3312 net.cpp:106] Creating Layer drop6
I0323 21:23:02.676345  3312 net.cpp:454] drop6 <- fc6
I0323 21:23:02.676352  3312 net.cpp:397] drop6 -> fc6 (in-place)
I0323 21:23:02.676378  3312 net.cpp:150] Setting up drop6
I0323 21:23:02.676385  3312 net.cpp:157] Top shape: 1 4096 (4096)
I0323 21:23:02.676388  3312 net.cpp:165] Memory required for data: 21921092
I0323 21:23:02.676393  3312 layer_factory.hpp:77] Creating layer fc7
I0323 21:23:02.676399  3312 net.cpp:106] Creating Layer fc7
I0323 21:23:02.676403  3312 net.cpp:454] fc7 <- fc6
I0323 21:23:02.676409  3312 net.cpp:411] fc7 -> fc7
I0323 21:23:02.719743  3312 net.cpp:150] Setting up fc7
I0323 21:23:02.719777  3312 net.cpp:157] Top shape: 1 4096 (4096)
I0323 21:23:02.719780  3312 net.cpp:165] Memory required for data: 21937476
I0323 21:23:02.719792  3312 layer_factory.hpp:77] Creating layer relu7
I0323 21:23:02.719805  3312 net.cpp:106] Creating Layer relu7
I0323 21:23:02.719808  3312 net.cpp:454] relu7 <- fc7
I0323 21:23:02.719815  3312 net.cpp:397] relu7 -> fc7 (in-place)
I0323 21:23:02.719826  3312 net.cpp:150] Setting up relu7
I0323 21:23:02.719831  3312 net.cpp:157] Top shape: 1 4096 (4096)
I0323 21:23:02.719835  3312 net.cpp:165] Memory required for data: 21953860
I0323 21:23:02.719838  3312 layer_factory.hpp:77] Creating layer drop7
I0323 21:23:02.719846  3312 net.cpp:106] Creating Layer drop7
I0323 21:23:02.719848  3312 net.cpp:454] drop7 <- fc7
I0323 21:23:02.719854  3312 net.cpp:397] drop7 -> fc7 (in-place)
I0323 21:23:02.719879  3312 net.cpp:150] Setting up drop7
I0323 21:23:02.719884  3312 net.cpp:157] Top shape: 1 4096 (4096)
I0323 21:23:02.719888  3312 net.cpp:165] Memory required for data: 21970244
I0323 21:23:02.719892  3312 layer_factory.hpp:77] Creating layer fc7_drop7_0_split
I0323 21:23:02.719898  3312 net.cpp:106] Creating Layer fc7_drop7_0_split
I0323 21:23:02.719903  3312 net.cpp:454] fc7_drop7_0_split <- fc7
I0323 21:23:02.719909  3312 net.cpp:411] fc7_drop7_0_split -> fc7_drop7_0_split_0
I0323 21:23:02.719915  3312 net.cpp:411] fc7_drop7_0_split -> fc7_drop7_0_split_1
I0323 21:23:02.719959  3312 net.cpp:150] Setting up fc7_drop7_0_split
I0323 21:23:02.719964  3312 net.cpp:157] Top shape: 1 4096 (4096)
I0323 21:23:02.719969  3312 net.cpp:157] Top shape: 1 4096 (4096)
I0323 21:23:02.719972  3312 net.cpp:165] Memory required for data: 22003012
I0323 21:23:02.719974  3312 layer_factory.hpp:77] Creating layer cls_score
I0323 21:23:02.719987  3312 net.cpp:106] Creating Layer cls_score
I0323 21:23:02.719991  3312 net.cpp:454] cls_score <- fc7_drop7_0_split_0
I0323 21:23:02.720000  3312 net.cpp:411] cls_score -> cls_score
I0323 21:23:02.720098  3312 net.cpp:150] Setting up cls_score
I0323 21:23:02.720103  3312 net.cpp:157] Top shape: 1 2 (2)
I0323 21:23:02.720106  3312 net.cpp:165] Memory required for data: 22003020
I0323 21:23:02.720113  3312 layer_factory.hpp:77] Creating layer bbox_pred
I0323 21:23:02.720121  3312 net.cpp:106] Creating Layer bbox_pred
I0323 21:23:02.720125  3312 net.cpp:454] bbox_pred <- fc7_drop7_0_split_1
I0323 21:23:02.720136  3312 net.cpp:411] bbox_pred -> bbox_pred
I0323 21:23:02.720953  3312 net.cpp:150] Setting up bbox_pred
I0323 21:23:02.720965  3312 net.cpp:157] Top shape: 1 8 (8)
I0323 21:23:02.720968  3312 net.cpp:165] Memory required for data: 22003052
I0323 21:23:02.720976  3312 layer_factory.hpp:77] Creating layer cls_prob
I0323 21:23:02.720984  3312 net.cpp:106] Creating Layer cls_prob
I0323 21:23:02.720988  3312 net.cpp:454] cls_prob <- cls_score
I0323 21:23:02.720996  3312 net.cpp:411] cls_prob -> cls_prob
I0323 21:23:02.721051  3312 net.cpp:150] Setting up cls_prob
I0323 21:23:02.721057  3312 net.cpp:157] Top shape: 1 2 (2)
I0323 21:23:02.721060  3312 net.cpp:165] Memory required for data: 22003060
I0323 21:23:02.721065  3312 net.cpp:228] cls_prob does not need backward computation.
I0323 21:23:02.721068  3312 net.cpp:228] bbox_pred does not need backward computation.
I0323 21:23:02.721071  3312 net.cpp:228] cls_score does not need backward computation.
I0323 21:23:02.721074  3312 net.cpp:228] fc7_drop7_0_split does not need backward computation.
…
