…
snapshot_prefix: "zf_faster_rcnn"
average_loss: 100
iter_size: 2
I0207 17:57:44.778898  3791 solver.cpp:81] Creating training net from train_net file: /home/sgabriel/py-faster-rcnn/models/pascal_voc/ZF/faster_rcnn_end2end/train.prototxt
I0207 17:57:44.780668  3791 net.cpp:49] Initializing net from parameters: 
name: "ZF"
state {
  phase: TRAIN
}
layer {
  name: "input-data"
  type: "Python"
  top: "data"
  top: "im_info"
  top: "gt_boxes"
  python_param {
    module: "roi_data_layer.layer"
    layer: "RoIDataLayer"
    param_str: "\'num_classes\': 2"
  }
}
layer {
  name: "conv1"
  type: "Convolution"
  bottom: "data"
  top: "conv1"
  param {
    lr_mult: 1
  }
  param {
    lr_mult: 2
  }
  convolution_param {
    num_output: 96
    pad: 3
    kernel_size: 7
    stride: 2
  }
}
layer {
  name: "relu1"
  type: "ReLU"
  bottom: "conv1"
  top: "conv1"
}
layer {
  name: "norm1"
  type: "LRN"
  bottom: "conv1"
  top: "norm1"
  lrn_param {
    local_size: 3
    alpha: 5e-05
    beta: 0.75
    norm_region: WITHIN_CHANNEL
    engine: CAFFE
  }
}
layer {
  name: "pool1"
  type: "Pooling"
  bottom: "norm1"
  top: "pool1"
  pooling_param {
    pool: MAX
    kernel_size: 3
    stride: 2
    pad: 1
  }
}
layer {
  name: "conv2"
  type: "Convolution"
  bottom: "pool1"
  top: "conv2"
  param {
    lr_mult: 1
  }
  param {
    lr_mult: 2
  }
  convolution_param {
    num_output: 256
    pad: 2
    kernel_size: 5
    stride: 2
  }
}
layer {
  name: "relu2"
  type: "ReLU"
  bottom: "conv2"
  top: "conv2"
}
layer {
  name: "norm2"
  type: "LRN"
  bottom: "conv2"
  top: "norm2"
  lrn_param {
    local_size: 3
    alpha: 5e-05
    beta: 0.75
    norm_region: WITHIN_CHANNEL
    engine: CAFFE
  }
}
layer {
  name: "pool2"
  type: "Pooling"
  bottom: "norm2"
  top: "pool2"
  pooling_param {
    pool: MAX
    kernel_size: 3
    stride: 2
    pad: 1
  }
}
layer {
  name: "conv3"
  type: "Convolution"
  bottom: "pool2"
  top: "conv3"
  param {
    lr_mult: 1
  }
  param {
    lr_mult: 2
  }
  convolution_param {
    num_output: 384
    pad: 1
    kernel_size: 3
    stride: 1
  }
}
layer {
  name: "relu3"
  type: "ReLU"
  bottom: "conv3"
  top: "conv3"
}
layer {
  name: "conv4"
  type: "Convolution"
  bottom: "conv3"
  top: "conv4"
  param {
    lr_mult: 1
  }
  param {
    lr_mult: 2
  }
  convolution_param {
    num_output: 384
    pad: 1
    kernel_size: 3
    stride: 1
  }
}
layer {
  name: "relu4"
  type: "ReLU"
  bottom: "conv4"
  top: "conv4"
}
layer {
  name: "conv5"
  type: "Convolution"
  bottom: "conv4"
  top: "conv5"
  param {
    lr_mult: 1
  }
  param {
    lr_mult: 2
  }
  convolution_param {
    num_output: 256
    pad: 1
    kernel_size: 3
    stride: 1
  }
}
layer {
  name: "relu5"
  type: "ReLU"
  bottom: "conv5"
  top: "conv5"
}
layer {
  name: "rpn_conv/3x3"
  type: "Convolution"
  bottom: "conv5"
  top: "rpn/output"
  param {
    lr_mult: 1
  }
  param {
    lr_mult: 2
  }
  convolution_param {
    num_output: 256
    pad: 1
    kernel_size: 3
    stride: 1
    weight_filler {
      type: "gaussian"
      std: 0.01
    }
    bias_filler {
      type: "constant"
      value: 0
    }
  }
}
layer {
  name: "rpn_relu/3x3"
  type: "ReLU"
  bottom: "rpn/output"
  top: "rpn/output"
}
layer {
  name: "rpn_cls_score"
  type: "Convolution"
  bottom: "rpn/output"
  top: "rpn_cls_score"
  param {
    lr_mult: 1
  }
  param {
    lr_mult: 2
  }
  convolution_param {
    num_output: 18
    pad: 0
    kernel_size: 1
    stride: 1
    weight_filler {
      type: "gaussian"
      std: 0.01
    }
    bias_filler {
      type: "constant"
      value: 0
    }
  }
}
layer {
  name: "rpn_bbox_pred"
  type: "Convolution"
  bottom: "rpn/output"
  top: "rpn_bbox_pred"
  param {
    lr_mult: 1
  }
  param {
    lr_mult: 2
  }
  convolution_param {
    num_output: 36
    pad: 0
    kernel_size: 1
    stride: 1
    weight_filler {
      type: "gaussian"
      std: 0.01
    }
    bias_filler {
      type: "constant"
      value: 0
    }
  }
}
layer {
  name: "rpn_cls_score_reshape"
  type: "Reshape"
  bottom: "rpn_cls_score"
  top: "rpn_cls_score_reshape"
  reshape_param {
    shape {
      dim: 0
      dim: 2
      dim: -1
      dim: 0
    }
  }
}
layer {
  name: "rpn-data"
  type: "Python"
  bottom: "rpn_cls_score"
  bottom: "gt_boxes"
  bottom: "im_info"
  bottom: "data"
  top: "rpn_labels"
  top: "rpn_bbox_targets"
  top: "rpn_bbox_inside_weights"
  top: "rpn_bbox_outside_weights"
  python_param {
    module: "rpn.anchor_target_layer"
    layer: "AnchorTargetLayer"
    param_str: "\'feat_stride\': 16"
  }
}
layer {
  name: "rpn_loss_cls"
  type: "SoftmaxWithLoss"
  bottom: "rpn_cls_score_reshape"
  bottom: "rpn_labels"
  top: "rpn_cls_loss"
  loss_weight: 1
  propagate_down: true
  propagate_down: false
  loss_param {
    ignore_label: -1
    normalize: true
  }
}
layer {
  name: "rpn_loss_bbox"
  type: "SmoothL1Loss"
  bottom: "rpn_bbox_pred"
  bottom: "rpn_bbox_targets"
  bottom: "rpn_bbox_inside_weights"
  bottom: "rpn_bbox_outside_weights"
  top: "rpn_loss_bbox"
  loss_weight: 1
  smooth_l1_loss_param {
    sigma: 3
  }
}
layer {
  name: "rpn_cls_prob"
  type: "Softmax"
  bottom: "rpn_cls_score_reshape"
  top: "rpn_cls_prob"
}
layer {
  name: "rpn_cls_prob_reshape"
  type: "Reshape"
  bottom: "rpn_cls_prob"
  top: "rpn_cls_prob_reshape"
  reshape_param {
    shape {
      dim: 0
      dim: 18
      dim: -1
      dim: 0
    }
  }
}
layer {
  name: "proposal"
  type: "Python"
  bottom: "rpn_cls_prob_reshape"
  bottom: "rpn_bbox_pred"
  bottom: "im_info"
  top: "rpn_rois"
  python_param {
    module: "rpn.proposal_layer"
    layer: "ProposalLayer"
    param_str: "\'feat_stride\': 16"
  }
}
layer {
  name: "roi-data"
  type: "Python"
  bottom: "rpn_rois"
  bottom: "gt_boxes"
  top: "rois"
  top: "labels"
  top: "bbox_targets"
  top: "bbox_inside_weights"
  top: "bbox_outside_weights"
  python_param {
    module: "rpn.proposal_target_layer"
    layer: "ProposalTargetLayer"
    param_str: "\'num_classes\': 21"
  }
}
layer {
  name: "roi_pool_conv5"
  type: "ROIPooling"
  bottom: "conv5"
  bottom: "rois"
  top: "roi_pool_conv5"
  roi_pooling_param {
    pooled_h: 6
    pooled_w: 6
    spatial_scale: 0.0625
  }
}
layer {
  name: "fc6"
  type: "InnerProduct"
  bottom: "roi_pool_conv5"
  top: "fc6"
  param {
    lr_mult: 1
  }
  param {
    lr_mult: 2
  }
  inner_product_param {
    num_output: 4096
  }
}
layer {
  name: "relu6"
  type: "ReLU"
  bottom: "fc6"
  top: "fc6"
}
layer {
  name: "drop6"
  type: "Dropout"
  bottom: "fc6"
  top: "fc6"
  dropout_param {
    dropout_ratio: 0.5
    scale_train: false
  }
}
layer {
  name: "fc7"
  type: "InnerProduct"
  bottom: "fc6"
  top: "fc7"
  param {
    lr_mult: 1
  }
  param {
    lr_mult: 2
  }
  inner_product_param {
    num_output: 4096
  }
}
layer {
  name: "relu7"
  type: "ReLU"
  bottom: "fc7"
  top: "fc7"
}
layer {
  name: "drop7"
  type: "Dropout"
  bottom: "fc7"
  top: "fc7"
  dropout_param {
    dropout_ratio: 0.5
    scale_train: false
  }
}
layer {
  name: "cls_score"
  type: "InnerProduct"
  bottom: "fc7"
  top: "cls_score"
  param {
    lr_mult: 1
  }
  param {
    lr_mult: 2
  }
  inner_product_param {
    num_output: 21
    weight_filler {
      type: "gaussian"
      std: 0.01
    }
    bias_filler {
      type: "constant"
      value: 0
    }
  }
}
layer {
  name: "bbox_pred"
  type: "InnerProduct"
  bottom: "fc7"
  top: "bbox_pred"
  param {
    lr_mult: 1
  }
  param {
    lr_mult: 2
  }
  inner_product_param {
    num_output: 84
    weight_filler {
      type: "gaussian"
      std: 0.001
    }
    bias_filler {
      type: "constant"
      value: 0
    }
  }
}
layer {
  name: "loss_cls"
  type: "SoftmaxWithLoss"
  bottom: "cls_score"
  bottom: "labels"
  top: "cls_loss"
  loss_weight: 1
  propagate_down: true
  propagate_down: false
  loss_param {
    ignore_label: -1
    normalize: true
  }
}
layer {
  name: "loss_bbox"
  type: "SmoothL1Loss"
  bottom: "bbox_pred"
  bottom: "bbox_targets"
  bottom: "bbox_inside_weights"
  bottom: "bbox_outside_weights"
  top: "bbox_loss"
  loss_weight: 1
}
I0207 17:57:44.780985  3791 layer_factory.hpp:77] Creating layer input-data
I0207 17:57:44.795848  3791 net.cpp:106] Creating Layer input-data
I0207 17:57:44.795874  3791 net.cpp:411] input-data -> data
I0207 17:57:44.795893  3791 net.cpp:411] input-data -> im_info
I0207 17:57:44.795902  3791 net.cpp:411] input-data -> gt_boxes
RoiDataLayer: name_to_top: {'gt_boxes': 2, 'data': 0, 'im_info': 1}
I0207 17:57:44.810973  3791 net.cpp:150] Setting up input-data
I0207 17:57:44.811004  3791 net.cpp:157] Top shape: 1 3 600 1000 (1800000)
I0207 17:57:44.811013  3791 net.cpp:157] Top shape: 1 3 (3)
I0207 17:57:44.811020  3791 net.cpp:157] Top shape: 1 4 (4)
I0207 17:57:44.811025  3791 net.cpp:165] Memory required for data: 7200028
I0207 17:57:44.811036  3791 layer_factory.hpp:77] Creating layer data_input-data_0_split
I0207 17:57:44.811055  3791 net.cpp:106] Creating Layer data_input-data_0_split
I0207 17:57:44.811064  3791 net.cpp:454] data_input-data_0_split <- data
I0207 17:57:44.811072  3791 net.cpp:411] data_input-data_0_split -> data_input-data_0_split_0
I0207 17:57:44.811087  3791 net.cpp:411] data_input-data_0_split -> data_input-data_0_split_1
I0207 17:57:44.811153  3791 net.cpp:150] Setting up data_input-data_0_split
I0207 17:57:44.811163  3791 net.cpp:157] Top shape: 1 3 600 1000 (1800000)
I0207 17:57:44.811170  3791 net.cpp:157] Top shape: 1 3 600 1000 (1800000)
I0207 17:57:44.811174  3791 net.cpp:165] Memory required for data: 21600028
I0207 17:57:44.811180  3791 layer_factory.hpp:77] Creating layer im_info_input-data_1_split
I0207 17:57:44.811188  3791 net.cpp:106] Creating Layer im_info_input-data_1_split
I0207 17:57:44.811193  3791 net.cpp:454] im_info_input-data_1_split <- im_info
I0207 17:57:44.811202  3791 net.cpp:411] im_info_input-data_1_split -> im_info_input-data_1_split_0
I0207 17:57:44.811213  3791 net.cpp:411] im_info_input-data_1_split -> im_info_input-data_1_split_1
I0207 17:57:44.811251  3791 net.cpp:150] Setting up im_info_input-data_1_split
I0207 17:57:44.811257  3791 net.cpp:157] Top shape: 1 3 (3)
I0207 17:57:44.811260  3791 net.cpp:157] Top shape: 1 3 (3)
I0207 17:57:44.811264  3791 net.cpp:165] Memory required for data: 21600052
I0207 17:57:44.811266  3791 layer_factory.hpp:77] Creating layer gt_boxes_input-data_2_split
I0207 17:57:44.811272  3791 net.cpp:106] Creating Layer gt_boxes_input-data_2_split
I0207 17:57:44.811275  3791 net.cpp:454] gt_boxes_input-data_2_split <- gt_boxes
I0207 17:57:44.811280  3791 net.cpp:411] gt_boxes_input-data_2_split -> gt_boxes_input-data_2_split_0
I0207 17:57:44.811285  3791 net.cpp:411] gt_boxes_input-data_2_split -> gt_boxes_input-data_2_split_1
I0207 17:57:44.811314  3791 net.cpp:150] Setting up gt_boxes_input-data_2_split
I0207 17:57:44.811318  3791 net.cpp:157] Top shape: 1 4 (4)
I0207 17:57:44.811322  3791 net.cpp:157] Top shape: 1 4 (4)
I0207 17:57:44.811324  3791 net.cpp:165] Memory required for data: 21600084
I0207 17:57:44.811327  3791 layer_factory.hpp:77] Creating layer conv1
I0207 17:57:44.811342  3791 net.cpp:106] Creating Layer conv1
I0207 17:57:44.811345  3791 net.cpp:454] conv1 <- data_input-data_0_split_0
I0207 17:57:44.811352  3791 net.cpp:411] conv1 -> conv1
I0207 17:57:44.812906  3791 net.cpp:150] Setting up conv1
I0207 17:57:44.812922  3791 net.cpp:157] Top shape: 1 96 300 500 (14400000)
I0207 17:57:44.812934  3791 net.cpp:165] Memory required for data: 79200084
I0207 17:57:44.812948  3791 layer_factory.hpp:77] Creating layer relu1
I0207 17:57:44.812959  3791 net.cpp:106] Creating Layer relu1
I0207 17:57:44.812963  3791 net.cpp:454] relu1 <- conv1
I0207 17:57:44.812969  3791 net.cpp:397] relu1 -> conv1 (in-place)
I0207 17:57:44.812978  3791 net.cpp:150] Setting up relu1
I0207 17:57:44.812983  3791 net.cpp:157] Top shape: 1 96 300 500 (14400000)
I0207 17:57:44.812986  3791 net.cpp:165] Memory required for data: 136800084
I0207 17:57:44.812989  3791 layer_factory.hpp:77] Creating layer norm1
I0207 17:57:44.812999  3791 net.cpp:106] Creating Layer norm1
I0207 17:57:44.813002  3791 net.cpp:454] norm1 <- conv1
I0207 17:57:44.813009  3791 net.cpp:411] norm1 -> norm1
I0207 17:57:44.813118  3791 net.cpp:150] Setting up norm1
I0207 17:57:44.813127  3791 net.cpp:157] Top shape: 1 96 300 500 (14400000)
I0207 17:57:44.813128  3791 net.cpp:165] Memory required for data: 194400084
I0207 17:57:44.813133  3791 layer_factory.hpp:77] Creating layer pool1
I0207 17:57:44.813140  3791 net.cpp:106] Creating Layer pool1
I0207 17:57:44.813144  3791 net.cpp:454] pool1 <- norm1
I0207 17:57:44.813149  3791 net.cpp:411] pool1 -> pool1
I0207 17:57:44.813182  3791 net.cpp:150] Setting up pool1
I0207 17:57:44.813189  3791 net.cpp:157] Top shape: 1 96 151 251 (3638496)
I0207 17:57:44.813190  3791 net.cpp:165] Memory required for data: 208954068
I0207 17:57:44.813194  3791 layer_factory.hpp:77] Creating layer conv2
I0207 17:57:44.813205  3791 net.cpp:106] Creating Layer conv2
I0207 17:57:44.813208  3791 net.cpp:454] conv2 <- pool1
I0207 17:57:44.813213  3791 net.cpp:411] conv2 -> conv2
I0207 17:57:44.815093  3791 net.cpp:150] Setting up conv2
I0207 17:57:44.815109  3791 net.cpp:157] Top shape: 1 256 76 126 (2451456)
I0207 17:57:44.815114  3791 net.cpp:165] Memory required for data: 218759892
I0207 17:57:44.815126  3791 layer_factory.hpp:77] Creating layer relu2
I0207 17:57:44.815136  3791 net.cpp:106] Creating Layer relu2
I0207 17:57:44.815141  3791 net.cpp:454] relu2 <- conv2
I0207 17:57:44.815155  3791 net.cpp:397] relu2 -> conv2 (in-place)
I0207 17:57:44.815165  3791 net.cpp:150] Setting up relu2
I0207 17:57:44.815174  3791 net.cpp:157] Top shape: 1 256 76 126 (2451456)
I0207 17:57:44.815179  3791 net.cpp:165] Memory required for data: 228565716
I0207 17:57:44.815186  3791 layer_factory.hpp:77] Creating layer norm2
I0207 17:57:44.815194  3791 net.cpp:106] Creating Layer norm2
I0207 17:57:44.815198  3791 net.cpp:454] norm2 <- conv2
I0207 17:57:44.815208  3791 net.cpp:411] norm2 -> norm2
I0207 17:57:44.815311  3791 net.cpp:150] Setting up norm2
I0207 17:57:44.815321  3791 net.cpp:157] Top shape: 1 256 76 126 (2451456)
I0207 17:57:44.815327  3791 net.cpp:165] Memory required for data: 238371540
I0207 17:57:44.815332  3791 layer_factory.hpp:77] Creating layer pool2
I0207 17:57:44.815346  3791 net.cpp:106] Creating Layer pool2
I0207 17:57:44.815351  3791 net.cpp:454] pool2 <- norm2
I0207 17:57:44.815359  3791 net.cpp:411] pool2 -> pool2
I0207 17:57:44.815395  3791 net.cpp:150] Setting up pool2
I0207 17:57:44.815403  3791 net.cpp:157] Top shape: 1 256 39 64 (638976)
I0207 17:57:44.815408  3791 net.cpp:165] Memory required for data: 240927444
I0207 17:57:44.815414  3791 layer_factory.hpp:77] Creating layer conv3
I0207 17:57:44.815425  3791 net.cpp:106] Creating Layer conv3
I0207 17:57:44.815430  3791 net.cpp:454] conv3 <- pool2
I0207 17:57:44.815441  3791 net.cpp:411] conv3 -> conv3
I0207 17:57:44.819102  3791 net.cpp:150] Setting up conv3
I0207 17:57:44.819118  3791 net.cpp:157] Top shape: 1 384 39 64 (958464)
I0207 17:57:44.819121  3791 net.cpp:165] Memory required for data: 244761300
I0207 17:57:44.819136  3791 layer_factory.hpp:77] Creating layer relu3
I0207 17:57:44.819145  3791 net.cpp:106] Creating Layer relu3
I0207 17:57:44.819151  3791 net.cpp:454] relu3 <- conv3
I0207 17:57:44.819160  3791 net.cpp:397] relu3 -> conv3 (in-place)
I0207 17:57:44.819169  3791 net.cpp:150] Setting up relu3
I0207 17:57:44.819176  3791 net.cpp:157] Top shape: 1 384 39 64 (958464)
I0207 17:57:44.819181  3791 net.cpp:165] Memory required for data: 248595156
I0207 17:57:44.819186  3791 layer_factory.hpp:77] Creating layer conv4
I0207 17:57:44.819200  3791 net.cpp:106] Creating Layer conv4
I0207 17:57:44.819203  3791 net.cpp:454] conv4 <- conv3
I0207 17:57:44.819214  3791 net.cpp:411] conv4 -> conv4
I0207 17:57:44.822932  3791 net.cpp:150] Setting up conv4
I0207 17:57:44.822953  3791 net.cpp:157] Top shape: 1 384 39 64 (958464)
I0207 17:57:44.822959  3791 net.cpp:165] Memory required for data: 252429012
I0207 17:57:44.822971  3791 layer_factory.hpp:77] Creating layer relu4
I0207 17:57:44.822980  3791 net.cpp:106] Creating Layer relu4
I0207 17:57:44.822985  3791 net.cpp:454] relu4 <- conv4
I0207 17:57:44.822994  3791 net.cpp:397] relu4 -> conv4 (in-place)
I0207 17:57:44.823004  3791 net.cpp:150] Setting up relu4
I0207 17:57:44.823010  3791 net.cpp:157] Top shape: 1 384 39 64 (958464)
I0207 17:57:44.823015  3791 net.cpp:165] Memory required for data: 256262868
I0207 17:57:44.823020  3791 layer_factory.hpp:77] Creating layer conv5
I0207 17:57:44.823036  3791 net.cpp:106] Creating Layer conv5
I0207 17:57:44.823041  3791 net.cpp:454] conv5 <- conv4
I0207 17:57:44.823051  3791 net.cpp:411] conv5 -> conv5
I0207 17:57:44.825922  3791 net.cpp:150] Setting up conv5
I0207 17:57:44.825944  3791 net.cpp:157] Top shape: 1 256 39 64 (638976)
I0207 17:57:44.825949  3791 net.cpp:165] Memory required for data: 258818772
I0207 17:57:44.825964  3791 layer_factory.hpp:77] Creating layer relu5
I0207 17:57:44.825974  3791 net.cpp:106] Creating Layer relu5
I0207 17:57:44.825980  3791 net.cpp:454] relu5 <- conv5
I0207 17:57:44.825987  3791 net.cpp:397] relu5 -> conv5 (in-place)
I0207 17:57:44.825997  3791 net.cpp:150] Setting up relu5
I0207 17:57:44.826004  3791 net.cpp:157] Top shape: 1 256 39 64 (638976)
I0207 17:57:44.826009  3791 net.cpp:165] Memory required for data: 261374676
I0207 17:57:44.826014  3791 layer_factory.hpp:77] Creating layer conv5_relu5_0_split
I0207 17:57:44.826023  3791 net.cpp:106] Creating Layer conv5_relu5_0_split
I0207 17:57:44.826028  3791 net.cpp:454] conv5_relu5_0_split <- conv5
I0207 17:57:44.826033  3791 net.cpp:411] conv5_relu5_0_split -> conv5_relu5_0_split_0
I0207 17:57:44.826038  3791 net.cpp:411] conv5_relu5_0_split -> conv5_relu5_0_split_1
I0207 17:57:44.826088  3791 net.cpp:150] Setting up conv5_relu5_0_split
I0207 17:57:44.826097  3791 net.cpp:157] Top shape: 1 256 39 64 (638976)
I0207 17:57:44.826100  3791 net.cpp:157] Top shape: 1 256 39 64 (638976)
I0207 17:57:44.826103  3791 net.cpp:165] Memory required for data: 266486484
I0207 17:57:44.826107  3791 layer_factory.hpp:77] Creating layer rpn_conv/3x3
I0207 17:57:44.826117  3791 net.cpp:106] Creating Layer rpn_conv/3x3
I0207 17:57:44.826120  3791 net.cpp:454] rpn_conv/3x3 <- conv5_relu5_0_split_0
I0207 17:57:44.826128  3791 net.cpp:411] rpn_conv/3x3 -> rpn/output
I0207 17:57:44.838135  3791 net.cpp:150] Setting up rpn_conv/3x3
I0207 17:57:44.838148  3791 net.cpp:157] Top shape: 1 256 39 64 (638976)
I0207 17:57:44.838151  3791 net.cpp:165] Memory required for data: 269042388
I0207 17:57:44.838160  3791 layer_factory.hpp:77] Creating layer rpn_relu/3x3
I0207 17:57:44.838167  3791 net.cpp:106] Creating Layer rpn_relu/3x3
I0207 17:57:44.838171  3791 net.cpp:454] rpn_relu/3x3 <- rpn/output
I0207 17:57:44.838177  3791 net.cpp:397] rpn_relu/3x3 -> rpn/output (in-place)
I0207 17:57:44.838186  3791 net.cpp:150] Setting up rpn_relu/3x3
I0207 17:57:44.838189  3791 net.cpp:157] Top shape: 1 256 39 64 (638976)
I0207 17:57:44.838193  3791 net.cpp:165] Memory required for data: 271598292
I0207 17:57:44.838196  3791 layer_factory.hpp:77] Creating layer rpn/output_rpn_relu/3x3_0_split
I0207 17:57:44.838204  3791 net.cpp:106] Creating Layer rpn/output_rpn_relu/3x3_0_split
I0207 17:57:44.838209  3791 net.cpp:454] rpn/output_rpn_relu/3x3_0_split <- rpn/output
I0207 17:57:44.838213  3791 net.cpp:411] rpn/output_rpn_relu/3x3_0_split -> rpn/output_rpn_relu/3x3_0_split_0
I0207 17:57:44.838219  3791 net.cpp:411] rpn/output_rpn_relu/3x3_0_split -> rpn/output_rpn_relu/3x3_0_split_1
I0207 17:57:44.838261  3791 net.cpp:150] Setting up rpn/output_rpn_relu/3x3_0_split
I0207 17:57:44.838268  3791 net.cpp:157] Top shape: 1 256 39 64 (638976)
I0207 17:57:44.838273  3791 net.cpp:157] Top shape: 1 256 39 64 (638976)
I0207 17:57:44.838275  3791 net.cpp:165] Memory required for data: 276710100
I0207 17:57:44.838279  3791 layer_factory.hpp:77] Creating layer rpn_cls_score
I0207 17:57:44.838289  3791 net.cpp:106] Creating Layer rpn_cls_score
I0207 17:57:44.838294  3791 net.cpp:454] rpn_cls_score <- rpn/output_rpn_relu/3x3_0_split_0
I0207 17:57:44.838301  3791 net.cpp:411] rpn_cls_score -> rpn_cls_score
I0207 17:57:44.838627  3791 net.cpp:150] Setting up rpn_cls_score
I0207 17:57:44.838637  3791 net.cpp:157] Top shape: 1 18 39 64 (44928)
I0207 17:57:44.838639  3791 net.cpp:165] Memory required for data: 276889812
I0207 17:57:44.838645  3791 layer_factory.hpp:77] Creating layer rpn_cls_score_rpn_cls_score_0_split
I0207 17:57:44.838651  3791 net.cpp:106] Creating Layer rpn_cls_score_rpn_cls_score_0_split
I0207 17:57:44.838655  3791 net.cpp:454] rpn_cls_score_rpn_cls_score_0_split <- rpn_cls_score
I0207 17:57:44.838661  3791 net.cpp:411] rpn_cls_score_rpn_cls_score_0_split -> rpn_cls_score_rpn_cls_score_0_split_0
I0207 17:57:44.838670  3791 net.cpp:411] rpn_cls_score_rpn_cls_score_0_split -> rpn_cls_score_rpn_cls_score_0_split_1
I0207 17:57:44.838706  3791 net.cpp:150] Setting up rpn_cls_score_rpn_cls_score_0_split
I0207 17:57:44.838714  3791 net.cpp:157] Top shape: 1 18 39 64 (44928)
I0207 17:57:44.838721  3791 net.cpp:157] Top shape: 1 18 39 64 (44928)
I0207 17:57:44.838743  3791 net.cpp:165] Memory required for data: 277249236
I0207 17:57:44.838753  3791 layer_factory.hpp:77] Creating layer rpn_bbox_pred
I0207 17:57:44.838773  3791 net.cpp:106] Creating Layer rpn_bbox_pred
I0207 17:57:44.838778  3791 net.cpp:454] rpn_bbox_pred <- rpn/output_rpn_relu/3x3_0_split_1
I0207 17:57:44.838793  3791 net.cpp:411] rpn_bbox_pred -> rpn_bbox_pred
I0207 17:57:44.839184  3791 net.cpp:150] Setting up rpn_bbox_pred
I0207 17:57:44.839192  3791 net.cpp:157] Top shape: 1 36 39 64 (89856)
I0207 17:57:44.839197  3791 net.cpp:165] Memory required for data: 277608660
I0207 17:57:44.839208  3791 layer_factory.hpp:77] Creating layer rpn_bbox_pred_rpn_bbox_pred_0_split
I0207 17:57:44.839215  3791 net.cpp:106] Creating Layer rpn_bbox_pred_rpn_bbox_pred_0_split
I0207 17:57:44.839223  3791 net.cpp:454] rpn_bbox_pred_rpn_bbox_pred_0_split <- rpn_bbox_pred
I0207 17:57:44.839232  3791 net.cpp:411] rpn_bbox_pred_rpn_bbox_pred_0_split -> rpn_bbox_pred_rpn_bbox_pred_0_split_0
I0207 17:57:44.839246  3791 net.cpp:411] rpn_bbox_pred_rpn_bbox_pred_0_split -> rpn_bbox_pred_rpn_bbox_pred_0_split_1
I0207 17:57:44.839288  3791 net.cpp:150] Setting up rpn_bbox_pred_rpn_bbox_pred_0_split
I0207 17:57:44.839298  3791 net.cpp:157] Top shape: 1 36 39 64 (89856)
I0207 17:57:44.839304  3791 net.cpp:157] Top shape: 1 36 39 64 (89856)
I0207 17:57:44.839309  3791 net.cpp:165] Memory required for data: 278327508
I0207 17:57:44.839314  3791 layer_factory.hpp:77] Creating layer rpn_cls_score_reshape
I0207 17:57:44.839328  3791 net.cpp:106] Creating Layer rpn_cls_score_reshape
I0207 17:57:44.839332  3791 net.cpp:454] rpn_cls_score_reshape <- rpn_cls_score_rpn_cls_score_0_split_0
I0207 17:57:44.839340  3791 net.cpp:411] rpn_cls_score_reshape -> rpn_cls_score_reshape
I0207 17:57:44.839375  3791 net.cpp:150] Setting up rpn_cls_score_reshape
I0207 17:57:44.839382  3791 net.cpp:157] Top shape: 1 2 351 64 (44928)
I0207 17:57:44.839387  3791 net.cpp:165] Memory required for data: 278507220
I0207 17:57:44.839392  3791 layer_factory.hpp:77] Creating layer rpn_cls_score_reshape_rpn_cls_score_reshape_0_split
I0207 17:57:44.839402  3791 net.cpp:106] Creating Layer rpn_cls_score_reshape_rpn_cls_score_reshape_0_split
I0207 17:57:44.839407  3791 net.cpp:454] rpn_cls_score_reshape_rpn_cls_score_reshape_0_split <- rpn_cls_score_reshape
I0207 17:57:44.839416  3791 net.cpp:411] rpn_cls_score_reshape_rpn_cls_score_reshape_0_split -> rpn_cls_score_reshape_rpn_cls_score_reshape_0_split_0
I0207 17:57:44.839424  3791 net.cpp:411] rpn_cls_score_reshape_rpn_cls_score_reshape_0_split -> rpn_cls_score_reshape_rpn_cls_score_reshape_0_split_1
I0207 17:57:44.839459  3791 net.cpp:150] Setting up rpn_cls_score_reshape_rpn_cls_score_reshape_0_split
I0207 17:57:44.839467  3791 net.cpp:157] Top shape: 1 2 351 64 (44928)
I0207 17:57:44.839473  3791 net.cpp:157] Top shape: 1 2 351 64 (44928)
I0207 17:57:44.839478  3791 net.cpp:165] Memory required for data: 278866644
I0207 17:57:44.839483  3791 layer_factory.hpp:77] Creating layer rpn-data
I0207 17:57:44.842015  3791 net.cpp:106] Creating Layer rpn-data
I0207 17:57:44.842027  3791 net.cpp:454] rpn-data <- rpn_cls_score_rpn_cls_score_0_split_1
I0207 17:57:44.842037  3791 net.cpp:454] rpn-data <- gt_boxes_input-data_2_split_0
I0207 17:57:44.842046  3791 net.cpp:454] rpn-data <- im_info_input-data_1_split_0
I0207 17:57:44.842052  3791 net.cpp:454] rpn-data <- data_input-data_0_split_1
I0207 17:57:44.842061  3791 net.cpp:411] rpn-data -> rpn_labels
I0207 17:57:44.842075  3791 net.cpp:411] rpn-data -> rpn_bbox_targets
I0207 17:57:44.842085  3791 net.cpp:411] rpn-data -> rpn_bbox_inside_weights
I0207 17:57:44.842097  3791 net.cpp:411] rpn-data -> rpn_bbox_outside_weights
I0207 17:57:44.843593  3791 net.cpp:150] Setting up rpn-data
I0207 17:57:44.843611  3791 net.cpp:157] Top shape: 1 1 351 64 (22464)
I0207 17:57:44.843619  3791 net.cpp:157] Top shape: 1 36 39 64 (89856)
I0207 17:57:44.843626  3791 net.cpp:157] Top shape: 1 36 39 64 (89856)
I0207 17:57:44.843633  3791 net.cpp:157] Top shape: 1 36 39 64 (89856)
I0207 17:57:44.843637  3791 net.cpp:165] Memory required for data: 280034772
I0207 17:57:44.843644  3791 layer_factory.hpp:77] Creating layer rpn_loss_cls
I0207 17:57:44.843657  3791 net.cpp:106] Creating Layer rpn_loss_cls
I0207 17:57:44.843663  3791 net.cpp:454] rpn_loss_cls <- rpn_cls_score_reshape_rpn_cls_score_reshape_0_split_0
I0207 17:57:44.843672  3791 net.cpp:454] rpn_loss_cls <- rpn_labels
…
I0207 17:57:44.844584  3791 net.cpp:157] Top shape: (1)
I0207 17:57:44.844589  3791 net.cpp:160]     with loss weight 1
I0207 17:57:44.844599  3791 net.cpp:165] Memory required for data: 280034780
I0207 17:57:44.844604  3791 layer_factory.hpp:77] Creating layer rpn_cls_prob
I0207 17:57:44.844614  3791 net.cpp:106] Creating Layer rpn_cls_prob
I0207 17:57:44.844620  3791 net.cpp:454] rpn_cls_prob <- rpn_cls_score_reshape_rpn_cls_score_reshape_0_split_1
I0207 17:57:44.844629  3791 net.cpp:411] rpn_cls_prob -> rpn_cls_prob
I0207 17:57:44.844688  3791 net.cpp:150] Setting up rpn_cls_prob
I0207 17:57:44.844696  3791 net.cpp:157] Top shape: 1 2 351 64 (44928)
I0207 17:57:44.844702  3791 net.cpp:165] Memory required for data: 280214492
I0207 17:57:44.844707  3791 layer_factory.hpp:77] Creating layer rpn_cls_prob_reshape
I0207 17:57:44.844722  3791 net.cpp:106] Creating Layer rpn_cls_prob_reshape
I0207 17:57:44.844727  3791 net.cpp:454] rpn_cls_prob_reshape <- rpn_cls_prob
I0207 17:57:44.844736  3791 net.cpp:411] rpn_cls_prob_reshape -> rpn_cls_prob_reshape
I0207 17:57:44.844766  3791 net.cpp:150] Setting up rpn_cls_prob_reshape
I0207 17:57:44.844774  3791 net.cpp:157] Top shape: 1 18 39 64 (44928)
I0207 17:57:44.844780  3791 net.cpp:165] Memory required for data: 280394204
I0207 17:57:44.844785  3791 layer_factory.hpp:77] Creating layer proposal
I0207 17:57:44.848455  3791 net.cpp:106] Creating Layer proposal
I0207 17:57:44.848469  3791 net.cpp:454] proposal <- rpn_cls_prob_reshape
I0207 17:57:44.848479  3791 net.cpp:454] proposal <- rpn_bbox_pred_rpn_bbox_pred_0_split_1
I0207 17:57:44.848486  3791 net.cpp:454] proposal <- im_info_input-data_1_split_1
I0207 17:57:44.848495  3791 net.cpp:411] proposal -> rpn_rois
I0207 17:57:44.864176  3791 net.cpp:150] Setting up proposal
I0207 17:57:44.864194  3791 net.cpp:157] Top shape: 1 5 (5)
I0207 17:57:44.864204  3791 net.cpp:165] Memory required for data: 280394224
I0207 17:57:44.864210  3791 layer_factory.hpp:77] Creating layer roi-data
I0207 17:57:44.869333  3791 net.cpp:106] Creating Layer roi-data
I0207 17:57:44.869350  3791 net.cpp:454] roi-data <- rpn_rois
I0207 17:57:44.869361  3791 net.cpp:454] roi-data <- gt_boxes_input-data_2_split_1
I0207 17:57:44.869371  3791 net.cpp:411] roi-data -> rois
I0207 17:57:44.869385  3791 net.cpp:411] roi-data -> labels
I0207 17:57:44.869400  3791 net.cpp:411] roi-data -> bbox_targets
I0207 17:57:44.869410  3791 net.cpp:411] roi-data -> bbox_inside_weights
I0207 17:57:44.869420  3791 net.cpp:411] roi-data -> bbox_outside_weights
I0207 17:57:44.870136  3791 net.cpp:150] Setting up roi-data
I0207 17:57:44.870153  3791 net.cpp:157] Top shape: 1 5 (5)
I0207 17:57:44.870165  3791 net.cpp:157] Top shape: 1 1 (1)
I0207 17:57:44.870172  3791 net.cpp:157] Top shape: 1 84 (84)
I0207 17:57:44.870177  3791 net.cpp:157] Top shape: 1 84 (84)
I0207 17:57:44.870182  3791 net.cpp:157] Top shape: 1 84 (84)
I0207 17:57:44.870187  3791 net.cpp:165] Memory required for data: 280395256
I0207 17:57:44.870193  3791 layer_factory.hpp:77] Creating layer roi_pool_conv5
I0207 17:57:44.870208  3791 net.cpp:106] Creating Layer roi_pool_conv5
I0207 17:57:44.870215  3791 net.cpp:454] roi_pool_conv5 <- conv5_relu5_0_split_1
I0207 17:57:44.870224  3791 net.cpp:454] roi_pool_conv5 <- rois
I0207 17:57:44.870236  3791 net.cpp:411] roi_pool_conv5 -> roi_pool_conv5
I0207 17:57:44.870259  3791 roi_pooling_layer.cpp:30] Spatial scale: 0.0625
I0207 17:57:44.870317  3791 net.cpp:150] Setting up roi_pool_conv5
I0207 17:57:44.870326  3791 net.cpp:157] Top shape: 1 256 6 6 (9216)
I0207 17:57:44.870332  3791 net.cpp:165] Memory required for data: 280432120
I0207 17:57:44.870337  3791 layer_factory.hpp:77] Creating layer fc6
I0207 17:57:44.870348  3791 net.cpp:106] Creating Layer fc6
I0207 17:57:44.870354  3791 net.cpp:454] fc6 <- roi_pool_conv5
I0207 17:57:44.870362  3791 net.cpp:411] fc6 -> fc6
I0207 17:57:44.974007  3791 net.cpp:150] Setting up fc6
I0207 17:57:44.974042  3791 net.cpp:157] Top shape: 1 4096 (4096)
I0207 17:57:44.974048  3791 net.cpp:165] Memory required for data: 280448504
I0207 17:57:44.974066  3791 layer_factory.hpp:77] Creating layer relu6
I0207 17:57:44.974079  3791 net.cpp:106] Creating Layer relu6
I0207 17:57:44.974086  3791 net.cpp:454] relu6 <- fc6
I0207 17:57:44.974097  3791 net.cpp:397] relu6 -> fc6 (in-place)
I0207 17:57:44.974110  3791 net.cpp:150] Setting up relu6
I0207 17:57:44.974117  3791 net.cpp:157] Top shape: 1 4096 (4096)
I0207 17:57:44.974122  3791 net.cpp:165] Memory required for data: 280464888
I0207 17:57:44.974128  3791 layer_factory.hpp:77] Creating layer drop6
I0207 17:57:44.974144  3791 net.cpp:106] Creating Layer drop6
I0207 17:57:44.974149  3791 net.cpp:454] drop6 <- fc6
I0207 17:57:44.974156  3791 net.cpp:397] drop6 -> fc6 (in-place)
I0207 17:57:44.974189  3791 net.cpp:150] Setting up drop6
I0207 17:57:44.974195  3791 net.cpp:157] Top shape: 1 4096 (4096)
I0207 17:57:44.974210  3791 net.cpp:165] Memory required for data: 280481272
I0207 17:57:44.974218  3791 layer_factory.hpp:77] Creating layer fc7
I0207 17:57:44.974231  3791 net.cpp:106] Creating Layer fc7
I0207 17:57:44.974244  3791 net.cpp:454] fc7 <- fc6
I0207 17:57:44.974256  3791 net.cpp:411] fc7 -> fc7
I0207 17:57:45.015349  3791 net.cpp:150] Setting up fc7
I0207 17:57:45.015377  3791 net.cpp:157] Top shape: 1 4096 (4096)
I0207 17:57:45.015383  3791 net.cpp:165] Memory required for data: 280497656
I0207 17:57:45.015398  3791 layer_factory.hpp:77] Creating layer relu7
I0207 17:57:45.015413  3791 net.cpp:106] Creating Layer relu7
I0207 17:57:45.015422  3791 net.cpp:454] relu7 <- fc7
I0207 17:57:45.015432  3791 net.cpp:397] relu7 -> fc7 (in-place)
I0207 17:57:45.015446  3791 net.cpp:150] Setting up relu7
I0207 17:57:45.015455  3791 net.cpp:157] Top shape: 1 4096 (4096)
I0207 17:57:45.015461  3791 net.cpp:165] Memory required for data: 280514040
I0207 17:57:45.015466  3791 layer_factory.hpp:77] Creating layer drop7
I0207 17:57:45.015488  3791 net.cpp:106] Creating Layer drop7
I0207 17:57:45.015525  3791 net.cpp:454] drop7 <- fc7
I0207 17:57:45.015542  3791 net.cpp:397] drop7 -> fc7 (in-place)
I0207 17:57:45.015583  3791 net.cpp:150] Setting up drop7
I0207 17:57:45.015591  3791 net.cpp:157] Top shape: 1 4096 (4096)
I0207 17:57:45.015597  3791 net.cpp:165] Memory required for data: 280530424
I0207 17:57:45.015604  3791 layer_factory.hpp:77] Creating layer fc7_drop7_0_split
I0207 17:57:45.015615  3791 net.cpp:106] Creating Layer fc7_drop7_0_split
I0207 17:57:45.015622  3791 net.cpp:454] fc7_drop7_0_split <- fc7
I0207 17:57:45.015632  3791 net.cpp:411] fc7_drop7_0_split -> fc7_drop7_0_split_0
I0207 17:57:45.015645  3791 net.cpp:411] fc7_drop7_0_split -> fc7_drop7_0_split_1
I0207 17:57:45.015699  3791 net.cpp:150] Setting up fc7_drop7_0_split
I0207 17:57:45.015709  3791 net.cpp:157] Top shape: 1 4096 (4096)
I0207 17:57:45.015717  3791 net.cpp:157] Top shape: 1 4096 (4096)
I0207 17:57:45.015722  3791 net.cpp:165] Memory required for data: 280563192
I0207 17:57:45.015729  3791 layer_factory.hpp:77] Creating layer cls_score
I0207 17:57:45.015743  3791 net.cpp:106] Creating Layer cls_score
I0207 17:57:45.015751  3791 net.cpp:454] cls_score <- fc7_drop7_0_split_0
I0207 17:57:45.015761  3791 net.cpp:411] cls_score -> cls_score
I0207 17:57:45.018070  3791 net.cpp:150] Setting up cls_score
I0207 17:57:45.018084  3791 net.cpp:157] Top shape: 1 21 (21)
I0207 17:57:45.018090  3791 net.cpp:165] Memory required for data: 280563276
I0207 17:57:45.018101  3791 layer_factory.hpp:77] Creating layer bbox_pred
I0207 17:57:45.018124  3791 net.cpp:106] Creating Layer bbox_pred
I0207 17:57:45.018133  3791 net.cpp:454] bbox_pred <- fc7_drop7_0_split_1
I0207 17:57:45.018146  3791 net.cpp:411] bbox_pred -> bbox_pred
I0207 17:57:45.025588  3791 net.cpp:150] Setting up bbox_pred
I0207 17:57:45.025605  3791 net.cpp:157] Top shape: 1 84 (84)
I0207 17:57:45.025612  3791 net.cpp:165] Memory required for data: 280563612
I0207 17:57:45.025624  3791 layer_factory.hpp:77] Creating layer loss_cls
I0207 17:57:45.025647  3791 net.cpp:106] Creating Layer loss_cls
I0207 17:57:45.025662  3791 net.cpp:454] loss_cls <- cls_score
I0207 17:57:45.025672  3791 net.cpp:454] loss_cls <- labels
I0207 17:57:45.025689  3791 net.cpp:411] loss_cls -> cls_loss
…
